tests/models/gaia_encoder.onnx (onnx, 185783 bytes, 15 tensors)

encoder.enc1.0.weight f4 [32, 1, 4]
0	0xbf3cd649	-0.73764473
1	0xbe100887	-0.14065753
2	0x3e160103	0.14648823
3	0x3f1d7a65	0.61514884
4	0x3f9de892	1.23366
5	0x3e1c0362	0.15235665
6	0xbdb35017	-0.0875551
7	0xbe2466ab	-0.1605479
8	0x3f2f6f40	0.6852913
9	0x3d39e063	0.045380007
10	0xbe026132	-0.1273239
11	0x3ef97812	0.4872442
12	0x3c7462f5	0.014916171
13	0xbec44288	-0.3833201
14	0x3f0bf1eb	0.5466601
15	0xbf43fb25	-0.7655509
16	0x3f03564e	0.51303566
17	0xbeea341d	-0.45742884
18	0x3d9f80b3	0.07788219
19	0x3eb0a29c	0.3449906
20	0xbf47c99d	-0.7804201
21	0x3e933c10	0.28756762
22	0xbe2a0dad	-0.1660678
23	0x3eb64144	0.3559667
24	0x3f2c9a06	0.6742252
25	0xbf3c2693	-0.7349636
26	0x3e2aaa11	0.16666438
27	0x3e5720ab	0.21008556
28	0xbe9baed4	-0.3040682
29	0xbeb1c72d	-0.34722272
30	0x3ed9991f	0.42499635
31	0xbf3a3ae9	-0.7274614
32	0xbe0f1f84	-0.13976866
33	0x3eef89c4	0.46784794
34	0xbf2a9874	-0.66638875
35	0x3ef74705	0.4829637
36	0x3e21c120	0.15796328
37	0x3ec7a1b6	0.38990563
38	0x3dfc9a42	0.1233411
39	0xbf340966	-0.7032684
40	0xbf3a5cfd	-0.7279814
41	0xbe386751	-0.18008162
42	0x3eb8bc06	0.3608095
43	0xbf1603d2	-0.5859958
44	0xbd2765d7	-0.040868606
45	0x3f36a4e7	0.7134537
46	0xbf0926d7	-0.5357489
47	0x3f199aa3	0.6000158
48	0xbf0ebfa0	-0.55761147
49	0xbeea017f	-0.45704266
50	0x3e297ee4	0.16552311
51	0x3f239a19	0.6390701
52	0x3e4cc193	0.19995718
53	0xbe589184	-0.2114926
54	0xbeec817b	-0.46192536
55	0x3f694f63	0.9113676
56	0xbee147c7	-0.44000074
57	0xbd56ee63	-0.052473437
58	0x3e8fe559	0.28104666
59	0xbf4ac89d	-0.7921236
60	0xbf0b2e83	-0.54367846
61	0x3ea179c8	0.31538224
62	0xbbd84171	-0.006599598
63	0x3f0c42ac	0.54789233
64	0xbe58a59b	-0.21156923
65	0xbd8c007b	-0.06836029
66	0x3f38ed96	0.7223753
67	0xbeecbba3	-0.46236905
68	0x3a366c23	0.00069588627
69	0x3f003824	0.50085664
70	0xbf3330a8	-0.6999612
71	0x3ecad2e6	0.39614028
72	0xbea7effa	-0.32800275
73	0xbe901330	-0.2813964
74	0x3db3936f	0.08768355
75	0xbf45bf9e	-0.7724551
76	0xbf1044b4	-0.5635483
77	0x3eee2bb0	0.46517706
78	0x3e9a5991	0.3014646
79	0xbf2607c3	-0.64855593
80	0xbb7a138c	-0.0038158624
81	0x3f1c583c	0.61072135
82	0xbf227f6b	-0.63475674
83	0x3ef42fd7	0.4769275
84	0xbef22447	-0.47293302
85	0x3eb8bb42	0.36080366
86	0x3d4e2d14	0.05033596
87	0xbee9b4c2	-0.4564572
88	0xbefccf97	-0.49377128
89	0x3ed4bf8d	0.41552392
90	0xbe9c1113	-0.30481777
91	0xbdb25e42	-0.087093845
92	0xbd8b3e05	-0.06798939
93	0xbeb4f002	-0.3533936
94	0xbd805fb2	-0.062682524
95	0x3f32e3a0	0.6987858
96	0xbff5898c	-1.9182601
97	0xbdb3713b	-0.087618314
98	0x3e56ffee	0.20996067
99	0xbd5bf16e	-0.053697042
100	0xbe892c2d	-0.26791516
101	0x3f091051	0.5354052
102	0xbf1be679	-0.6089855
103	0x3f0654a0	0.5247288
104	0x3ed9c776	0.4253499
105	0xbef984bd	-0.48734084
106	0x3f11131d	0.5666979
107	0xbf034d45	-0.5128978
108	0xbe5f1aff	-0.21787642
109	0xbd708858	-0.058723778
110	0xbf037b11	-0.5135966
111	0x3f374c77	0.7160105
112	0xbe788d3c	-0.24272627
113	0x3f1203bd	0.57036954
114	0xbf1aa141	-0.60402304
115	0x3e8dc66c	0.27690446
116	0xbf78e9d6	-0.97231805
117	0xbd586c62	-0.052837737
118	0x3d9f34b4	0.07773724
119	0x3ebf8ec4	0.3741361
120	0x3f4374ab	0.76349896
121	0xbea6c3aa	-0.32571155
122	0xbeb23938	-0.3480928
123	0xbd8e9c5d	-0.06963418
124	0x3ec70bb0	0.38876104
125	0xbed8439b	-0.4223908
126	0x3ed3c1e4	0.41358864
127	0xbe3e96e4	-0.18612248

encoder.enc1.0.bias f4 [32]
0	0x3e912c59	0.28354147
1	0x3ebf267a	0.37334043
2	0xbe02bf6b	-0.12768333
3	0x3eb6c76c	0.35699022
4	0x3e730cbf	0.23735331
5	0x3ee2abf0	0.44271803
6	0xbe9427c4	-0.2893659
7	0xbe7cb352	-0.2467778
8	0xbe123228	-0.14276946
9	0x3cc060c1	0.023483636
10	0x3e99ef14	0.30065215
11	0xbe930c41	-0.28720286
12	0x3e82d6e1	0.25554565
13	0xbe3b168d	-0.18270321
14	0x3e99bed7	0.30028412
15	0xbcd84a47	-0.026402606
16	0xbecad27b	-0.3961371
17	0xbe8d8f1f	-0.27648255
18	0xbeb8bb94	-0.3608061
19	0x3e7b3812	0.24533108
20	0xbead29c4	-0.33820927
21	0xbd20e649	-0.039282117
22	0x3dda4949	0.10658509
23	0xbe8710cf	-0.2638001
24	0x3e14c301	0.14527513
25	0xbeef88aa	-0.46783954
26	0xbebcb292	-0.36854988
27	0xbee25959	-0.44208792
28	0xbe3ae729	-0.18252243
29	0xbe39c03a	-0.18139735
30	0x3d1a513d	0.03767513
31	0xbda6fe4c	-0.08153972

encoder.enc1.1.weight f4 [32]
0	0x3f0b7e43	0.54489535
1	0x3f9bdb4c	1.2176299
2	0x3ef5dd4f	0.48020408
3	0x3f533f7b	0.8251874
4	0x3f4dbbea	0.8036486
5	0x3f8592af	1.0435389
6	0x3f6b15a0	0.9182987
7	0x3f8c27df	1.0949668
8	0x3f3119cd	0.69179994
9	0x3f688a02	0.90835583
10	0x3f8f5eea	1.120084
11	0x3f9bcb3b	1.2171396
12	0x3f25ad8b	0.6471793
13	0x3f3fe998	0.7496581
14	0x3f272970	0.65297604
15	0x3f5dfd0c	0.86714244
16	0x3f3378b9	0.70106083
17	0x3fa99864	1.3249631
18	0x3f5e8eb3	0.8693649
19	0x3f92c49d	1.1466252
20	0x3f27a169	0.6548067
21	0x3f3efa25	0.7460044
22	0x3f1212fc	0.5706022
23	0x3f540ab7	0.8282885
24	0x3c03906a	0.008030036
25	0x3f9864f5	1.190581
26	0x3f8a830d	1.0821244
27	0x3ef88e3d	0.4854602
28	0x3ff16d69	1.8861514
29	0x3efb5dc7	0.49094984
30	0x3f087aad	0.5331219
31	0x3f296d41	0.66182333

encoder.enc1.1.bias f4 [32]
0	0x3ed4a1b1	0.4152961
1	0xbed432f2	-0.41445118
2	0x3f09518a	0.53640044
3	0xbe7cb3fe	-0.24678037
4	0xbe1cf4b6	-0.15327725
5	0xbfb0e336	-1.3819339
6	0xbcc09f65	-0.023513505
7	0xbf88cfe2	-1.0688441
8	0x3dd38b42	0.10329296
9	0xbf384f6d	-0.71996194
10	0xbf51adbb	-0.81905717
11	0xbf534add	-0.8253611
12	0xbee92412	-0.45535332
13	0x3ea3fcd6	0.32028836
14	0xbcbe03d6	-0.023195188
15	0xbeae0f68	-0.3399613
16	0xbe8e8318	-0.27834392
17	0xbf3244b9	-0.6963611
18	0xbef1810d	-0.4716877
19	0xbfbae11b	-1.4599947
20	0xbd818a89	-0.063252516
21	0xbe19a44d	-0.15004082
22	0xbd529fc4	-0.051421896
23	0x3d8d02fd	0.068853356
24	0xbcaeb571	-0.021326752
25	0xbf5c95c5	-0.8616603
26	0x3d229ba3	0.039699208
27	0x3c06435a	0.008194769
28	0x3fab8172	1.3398879
29	0xbe35fb18	-0.17771566
30	0x3e386468	0.18007052
31	0x3f425778	0.75914717

encoder.enc1.1.running_mean f4 [32]
0	0x3e5e9573	0.21736698
1	0x3f835c1c	1.0262485
2	0x3eff31a1	0.4984255
3	0x3ca31382	0.019906763
4	0x3f02e99d	0.51137716
5	0x3e89fc2e	0.2695021
6	0xbddf593c	-0.10905692
7	0xbf4b5df0	-0.7944021
8	0xbd75c2dc	-0.060000286
9	0x3bba589b	0.005686832
10	0xbeb30d34	-0.3497101
11	0x3e0bb68a	0.13643852
12	0x3e0a2930	0.13492274
13	0x3d8a8c3e	0.0676503
14	0xbe8d2ccc	-0.2757324
15	0x3e1e455c	0.15456146
16	0xbecff259	-0.40614584
17	0xbe274694	-0.16335517
18	0xbf8d6528	-1.1046495
19	0xbc1369af	-0.008997365
20	0xbda48f60	-0.08035159
21	0xbeac2157	-0.33619186
22	0xbe273275	-0.16327842
23	0xbe10410e	-0.14087316
24	0xbf6a7023	-0.9157736
25	0xbeb99e68	-0.36253667
26	0xbebf1b41	-0.3732548
27	0xbef8a098	-0.48560023
28	0xbe3aabd7	-0.18229614
29	0xbf028c96	-0.5099577
30	0x3d41ec6f	0.04734462
31	0x3cf38f1a	0.029731322

encoder.enc1.1.running_var f4 [32]
0	0x3b752489	0.003740581
1	0x3df811e0	0.121127844
2	0x3ddf507e	0.109040245
3	0x3d040e32	0.0322401
4	0x3caea43e	0.021318551
5	0x3c1f48c4	0.0097219385
6	0x3c1e55e9	0.009664037
7	0x3daada35	0.08342401
8	0x3b1ac2bf	0.0023614613
9	0x3af54ff2	0.0018715842
10	0x3df15c30	0.117851615
11	0x3d4b909d	0.04969846
12	0x3bd92287	0.0066264304
13	0x3c9e5023	0.019325322
14	0x3dbdbee9	0.09264929
15	0x3c236199	0.009972
16	0x3a31eae1	0.0006787014
17	0x3b7b7d67	0.0038374306
18	0x3e1cd0f5	0.15314086
19	0x3c9dc731	0.01926002
20	0x3c9862d3	0.01860181
21	0x3ccd2621	0.025042595
22	0x3ca78a9a	0.020451833
23	0x3bba2d55	0.0056816735
24	0x3ea2bb89	0.31783703
25	0x3b6ca76a	0.0036110529
26	0x3a55142f	0.0008128313
27	0x3b0f9a5b	0.0021912071
28	0x3965f9fc	0.00021932268
29	0x3d04e14d	0.032441426
30	0x3a6764e9	0.00088269875
31	0x3b73b0c9	0.003718423

encoder.enc2.0.weight f4 [64, 32, 4]
0	0x3f8ffacf	1.1248416
1	0xbe425274	-0.18976766
2	0x3dae6f7c	0.08517358
3	0xbeedd286	-0.4644968
4	0xbe4ec3ac	-0.2019183
5	0xbd581ae3	-0.052760016
6	0xbe69d725	-0.22835977
7	0x3d0e810f	0.03479105
8	0xbe26a434	-0.16273576
9	0x3d917ab5	0.07103483
10	0x3e68db56	0.2273992
11	0x3d951999	0.07280273
12	0x3ceb8269	0.028748708
13	0xbe17131a	-0.1475338
14	0x3cd49722	0.025950972
15	0x3da0366d	0.07822881
16	0xbe3bc7eb	-0.18337981
17	0x3e34e798	0.17666471
18	0x3e7140d7	0.2355989
19	0xbe3e024b	-0.18555562
20	0xbfff41ce	-1.9941957
21	0xbf948b33	-1.160498
22	0xbf19a0bc	-0.60010886
23	0xbf40558d	-0.7513054
24	0xbed1c3c4	-0.4096967
25	0x3dc1dc95	0.09465901
26	0x3e60baf3	0.21946315
27	0xbe882783	-0.26592645
28	0x3f1a7703	0.6033785
29	0x3e9b66c1	0.30351833
30	0x3e821338	0.25405288
31	0x3ea219bf	0.31660268
32	0xbe4134f4	-0.18867856
33	0xbd381e5a	-0.04495082
34	0x3e5c1edc	0.21496147
35	0xbdbfd897	-0.09367483
36	0xbda3d254	-0.07999101
37	0xbe18207f	-0.14856146
38	0xbcd2bfa0	-0.02572614
39	0x3eb5eff9	0.35534647
40	0x3e6e3f42	0.23266318
41	0x3e8cc99f	0.27497575
42	0x3e925e53	0.2858759
43	0x3e9f01c2	0.3105603
44	0xbd98b590	-0.07456505
45	0x3f0434d4	0.5164311
46	0x3ed452fc	0.41469562
47	0x3eac34e1	0.33634093
48	0x3ef3dab8	0.47627807
49	0xbf0b860b	-0.5450141
50	0x3d6071e1	0.054796103
51	0xbedb43d7	-0.42825195
52	0xbd9caf3e	-0.07650612
53	0xbc0791b3	-0.0082744835
54	0x3ed0d18b	0.4078487
55	0xbe711e1a	-0.23546639
56	0x3e223c33	0.15843277
57	0x3bbb2752	0.0057114745
58	0xbe4bad8a	-0.19890419
59	0x3e05cdad	0.1306674
60	0x3e82666a	0.2546876
61	0xbf1dfa9b	-0.6171052
62	0xbe595cf5	-0.21226867
63	0xbecec328	-0.40383267
64	0xbec227d3	-0.37921008
65	0xbe314f5c	-0.1731543
66	0xbc25e3c2	-0.0101251025
67	0xbedf2d85	-0.43589416
68	0x3e895b6d	0.26827565
69	0x3d6e022a	0.058107533
70	0x3b29b0b4	0.0025892677
71	0xbf0dad80	-0.55342865
72	0x3dad543f	0.08463334
73	0x3e0bef98	0.13665617
74	0x3dad0622	0.08448435
75	0x3e571237	0.21003042
76	0xbe4f96b2	-0.2027233
77	0xbf3ae9da	-0.7301308
78	0xbef7c4a3	-0.4839221
79	0xbee76bc6	-0.45199412
80	0xbd36d30d	-0.044634867
81	0x3dd580f9	0.1042499
82	0x3de03b53	0.10948815
83	0x3daa012c	0.08301005
84	0x3d012a92	0.03153474
85	0xbe42b4d4	-0.19014293
86	0xbdd7f39b	-0.10544511
87	0x3d47f4a0	0.048817277
88	0x3dc17cdf	0.094476454
89	0xbd2910d1	-0.041275803
90	0xbd8df1ec	-0.069309086
91	0x3d15bc57	0.036556568
92	0x3e9bb127	0.30408594
93	0xbeb669be	-0.3562755
94	0x3ec20717	0.37896034
95	0xbeeebd5a	-0.4662884
96	0x3db4f139	0.08835072
97	0xbd8473ba	-0.064673856
98	0xbe204b8a	-0.15653816
99	0xbd6f5988	-0.058434993
100	0x3c56491f	0.013078957
101	0xbe0ae590	-0.13564134
102	0x3e8bb749	0.27288273
103	0xbe8a3c85	-0.26999298
104	0x3ef0607c	0.46948612
105	0x3bb859a2	0.0056259194
106	0xbefde35f	-0.49587533
107	0x3cef6147	0.02922119
108	0x3ea1fbc0	0.31637383
109	0xbed9b174	-0.42518198
110	0x3e07e1ee	0.13269779
111	0xbedf3e3e	-0.43602175
112	0xbe26cbfe	-0.16288754
113	0xbede938a	-0.43471938
114	0x3f616cdd	0.8805674
115	0xbeee8fbc	-0.46594036
116	0x3e2be563	0.16786723
117	0xbd055105	-0.03254797
118	0xbdbb0e20	-0.091335535
119	0xbd08e391	-0.03342015
120	0xbeb47962	-0.35248858
121	0x3e657cf3	0.22410946
122	0x3db487e3	0.08814981
123	0xbdb1a1c3	-0.08673432
124	0xbef0ebf9	-0.47055033
125	0xbc69d258	-0.014271341
126	0x3d0010fa	0.03126619
127	0xbc0c0f3c	-0.008548554
128	0x3cc1a827	0.023639752
129	0xbd20c90b	-0.03925423
130	0x3e3e1b27	0.18565045
131	0x3e7a9696	0.24471506
132	0x3c85323a	0.016259301
133	0x3e050770	0.12991118
134	0x3c8e07c8	0.017337695
135	0xbde3027d	-0.11084459
136	0xbe99ed82	-0.30064017
137	0xbe52d596	-0.20589289
138	0xbe23f685	-0.16012008
139	0xbd880a25	-0.0664256
140	0x3e4b6989	0.19864477
141	0x3ebd0372	0.3691669
142	0x3e879811	0.26483205
143	0x3f01fb1c	0.5077379
144	0xbbe5ec34	-0.007016683
145	0xbdc0da26	-0.094166085
146	0x3e0f51dc	0.1399607
147	0x3e699e7b	0.22814362
148	0xbf0dca8c	-0.55387187
149	0x3f05827c	0.5215223
150	0xbf28072d	-0.6563595
151	0xbf377b4a	-0.716725
152	0x3ce0cd09	0.027441518
153	0xbd1c3b74	-0.038142636
154	0x3d726e1d	0.059187043
155	0x3e9c2df0	0.30503798
156	0xbf9b5f38	-1.2138433
157	0xbfa9c2bf	-1.3262557
158	0xbfbdbe0b	-1.4823622
159	0xbfa23c3e	-1.2674634
160	0x3d574b9a	0.052562334
161	0x3dcd0e5e	0.10012506
162	0x3e53c855	0.2068189
163	0x3e5bd43e	0.21467683
164	0xbedde4b3	-0.43338546
165	0xbe8fd4dd	-0.2809209
166	0xbdf34345	-0.11878065
167	0xbe97beea	-0.29637843
168	0xbf9d119a	-1.2270997
169	0xbf8f7bf3	-1.1209701
170	0xbf8d80b0	-1.1054897
171	0xbf5e09d6	-0.8673376
172	0xbd9cb468	-0.07651597
173	0xbec3de68	-0.3825562
174	0xbf06818b	-0.52541417
175	0xbe9681fd	-0.29396048
176	0xbe8715bd	-0.26383772
177	0xbd7c7208	-0.061632186
178	0x3e505cb4	0.20347863
179	0xbce34980	-0.027745008
180	0xbe3fb1f7	-0.18720232
181	0xbe267fe3	-0.16259722
182	0x3c813548	0.015772477
183	0x3d1767b4	0.036964133
184	0x3e4cabc6	0.19987401
185	0x3df8e94e	0.12153874
186	0x3e1ab4b0	0.1510799
187	0x3ecc1678	0.39860892
188	0x3e114072	0.1418474
189	0xbd46ab8e	-0.04850345
190	0x3c4f8f65	0.012668465
191	0x3eb8eb8b	0.36117205
192	0x3e33269c	0.17495197
193	0x3dd091e3	0.10184076
194	0xbefb8bcb	-0.4913009
195	0xbda3abd4	-0.07991758
196	0xbd198d51	-0.037488285
197	0xbe2a3a0e	-0.16623709
198	0xbe5409fe	-0.20706937
199	0xbd3d78b7	-0.0462577
200	0xbf7c0e7a	-0.9845959
201	0xbf4e9098	-0.8068938
202	0xbeda6866	-0.42657775
203	0xbeac64c9	-0.33670643
204	0xbf1cd8c5	-0.61268264
205	0xbf8f568f	-1.119829
206	0xbf30e7ae	-0.69103515
207	0xbf752407	-0.957581
208	0x3d84bf56	0.06481807
209	0x3c0b2bad	0.0084943
210	0x3d3b9848	0.045799524
211	0x3e14043d	0.14454742
212	0x3e608457	0.21925484
213	0x3ec7d801	0.39031985
214	0x3ec5d095	0.38635698
215	0x3f17b3de	0.5925883
216	0x3e23ad5a	0.15984097
217	0x3e847f93	0.2587858
218	0x3e3fd53e	0.18733689
219	0x3ed3c63a	0.41362172
220	0x3c57ff78	0.013183467
221	0x3d2c872a	0.04212109
222	0x3e4800e0	0.19531584
223	0x3e8e66e4	0.27812874
224	0x3d904b26	0.070455834
225	0x3e1507bc	0.14553732
226	0x3c8eb052	0.01741806
227	0x3e2102b1	0.15723683
228	0xbeb06e31	-0.3445907
229	0xbf18903f	-0.595951
230	0xbf0ab7f6	-0.5418695
231	0xbd60035e	-0.05469071
232	0xbdd39e3f	-0.103329174
233	0xbe35ef30	-0.17767024
234	0xbdee2b9a	-0.1162941
235	0x3e9f97d2	0.31170517
236	0xbdfbdd1a	-0.12298031
237	0xbdcd16e9	-0.100141354
238	0x3e07f20f	0.13275932
239	0x3e97fc60	0.29684734
240	0xbe16443b	-0.14674465
241	0xbe94d0ae	-0.2906546
242	0xbe34e4da	-0.17665425
243	0x3f1c3dbe	0.6103171
244	0xbee6747a	-0.4501074
245	0xbe03b315	-0.12861283
246	0x3e4946e3	0.19655947
247	0x3ebd1886	0.36932772
248	0x3e192693	0.14956121
249	0xbec4533d	-0.38344756
250	0x3d8fcc69	0.0702141
251	0x3e79c7d9	0.24392642
252	0xbe886155	-0.26636758
253	0xbdf11233	-0.11771049
254	0xbe2f1e1a	-0.17101327
255	0xbd5233a6	-0.051318787

encoder.enc2.0.bias f4 [64]
0	0x3c792cfe	0.015208481
1	0xbd79d17b	-0.06099079
2	0x3d2f4ffc	0.04280089
3	0x3c110f44	0.008853737
4	0xbdb1c712	-0.08680548
5	0x3d96602d	0.07342563
6	0x3d6705ed	0.056402136
7	0x3a3f013b	0.0007286255
8	0xbc8ebd9c	-0.017424397
9	0x3da2567a	0.0792665
10	0x3db33b7f	0.08751582
11	0x3c6b21b9	0.014351302
12	0x3da7cdf3	0.081935786
13	0x3d17e001	0.03707886
14	0x3d2d109d	0.04225217
15	0xbba625be	-0.005070417
16	0xbbd7387d	-0.006568013
17	0x3d670c7b	0.056408387
18	0xbd1de103	-0.038544666
19	0xbd823271	-0.06357277
20	0x3d633f39	0.055480216
21	0xbcb093cb	-0.021554848
22	0x3d7f1c20	0.06228268
23	0xbc6ee7ee	-0.0145816635
24	0xbd5ce4b3	-0.053929042
25	0xbac5e544	-0.0015098234
26	0xbc273b37	-0.010206989
27	0x3ca102e9	0.019654708
28	0xbd8bdcea	-0.068292454
29	0xbd99668d	-0.07490263
30	0x3b998e0e	0.0046861237
31	0x3da34173	0.07971468
32	0xbd64ef9d	-0.055892576
33	0xbd36a832	-0.044593997
34	0x3c092e74	0.008372892
35	0x3d87b7ed	0.06626878
36	0x3d8a5bdb	0.06755801
37	0xbc968787	-0.018375171
38	0xbb9775de	-0.004622205
39	0xbd8e6266	-0.06952362
40	0x3db160ba	0.08661027
41	0x3d5ba116	0.05362042
42	0x3cba804c	0.022766255
43	0xbdb041e7	-0.0860632
44	0x3d4d08af	0.05005711
45	0xbd4bce67	-0.049757387
46	0x3b6a6ca4	0.0035770321
47	0x3d2ebfe4	0.04266347
48	0xbb35cb16	-0.0027739457
49	0xbd303551	-0.043019596
50	0x3d75014a	0.059815682
51	0x3d761032	0.06007404
52	0x3c0bb438	0.008526854
53	0xbd630fed	-0.05543511
54	0xbd3aa9bd	-0.04557203
55	0xbda26cba	-0.07930894
56	0xbd412c0f	-0.04716116
57	0xbda1ff70	-0.07910049
58	0xbbff927f	-0.007799446
59	0xbd807924	-0.06273106
60	0x3d4eb867	0.05046883
61	0xbd922a71	-0.07137001
62	0xbd7a2be8	-0.06107703
63	0xbd5ebe1a	-0.054380514

encoder.enc2.1.weight f4 [64]
0	0x3f7ef1e4	0.99587846
1	0x3f3771fc	0.716583
2	0x3f1b51e3	0.60671824
3	0x3f687e5c	0.9081781
4	0x3f5e3cc2	0.8681146
5	0x3f3abe60	0.7294674
6	0x3f27db54	0.65569043
7	0x3f68608b	0.9077231
8	0x3fb90a06	1.4456184
9	0x3f0a9067	0.5412659
10	0x3f3bb5f6	0.73324525
11	0x3f0d001f	0.5507831
12	0x3f80d721	1.0065652
13	0x3f45b85b	0.7723443
14	0x3f87433e	1.0567396
15	0x3f2e3d6f	0.6806249
16	0x3f964633	1.1740173
17	0x3f7d0040	0.98828506
18	0x3f82c4bd	1.021629
19	0x3f6580bf	0.89649576
20	0x3f2c4359	0.67290264
21	0x3f289878	0.6585765
22	0x3f32be82	0.6982194
23	0x3f53dc61	0.82758147
24	0x3f60022b	0.8750331
25	0x3f2cc3cc	0.6748626
26	0x3f662656	0.89902246
27	0x3f37a0d2	0.7172977
28	0x3f614259	0.87991863
29	0x3f286bb8	0.65789366
30	0x3f18aa2f	0.5963468
31	0x3f4efac5	0.80851394
32	0x3f44debc	0.76902366
33	0x3f0782f8	0.5293422
34	0x3fa9a874	1.3254533
35	0x3f382180	0.71926117
36	0x3f3a539f	0.72783846
37	0x3f45f3ea	0.7732531
38	0x3f2c4277	0.6728892
39	0x3f15418b	0.58303136
40	0x3f199b2c	0.600024
41	0x3ee02c5c	0.43783844
42	0x3f91746f	1.1363658
43	0x3f1706fe	0.58995044
44	0x3fa9acfc	1.3255916
45	0x3f412f9c	0.7546327
46	0x3f586c41	0.8454018
47	0x3f0a2b2a	0.53972113
48	0x3f4d9384	0.80303216
49	0x3f29e519	0.663652
50	0x3f2c0b9f	0.6720523
51	0x3f83dd91	1.0301992
52	0x3f2d5e69	0.67722183
53	0x3f4f543a	0.80987895
54	0x3f666bc2	0.90008175
55	0x3f23e082	0.64014447
56	0x3f77041c	0.96490645
57	0x3f2a9e3b	0.6664769
58	0x3f6c53f8	0.92315626
59	0x3fa333a0	1.275013
60	0x3f1937e8	0.5985093
61	0x3f3925be	0.72323215
62	0x3f1649ba	0.5870625
63	0x3f865106	1.0493476

encoder.enc2.1.bias f4 [64]
0	0xbf2c7bbd	-0.6737631
1	0xbeeca88b	-0.46222338
2	0xbf4157f9	-0.7552486
3	0xbf22cf35	-0.6359742
4	0xbea8ce14	-0.32969725
5	0xbf412907	-0.7545323
6	0xbf0e45dd	-0.5557535
7	0xbf61ff2c	-0.88279986
8	0xbfbf4235	-1.494208
9	0xbf293c2a	-0.6610743
10	0xbf1701cc	-0.58987117
11	0xbef45a5e	-0.47725195
12	0xbfe07100	-1.7534485
13	0xbe31041d	-0.17286725
14	0xbfa60747	-1.2970971
15	0xbed642c6	-0.4184782
16	0xbff43826	-1.9079635
17	0xbf568848	-0.838017
18	0xbfc651dc	-1.5493731
19	0xbf50ff39	-0.8163944
20	0xbeb3f89c	-0.3515061
21	0xbe903764	-0.2816726
22	0xbf02d1f8	-0.51101637
23	0xbdcb7768	-0.09934884
24	0xbfa40099	-1.2812682
25	0xbf075925	-0.528704
26	0xbf98b1a6	-1.1929214
27	0xbf0155d7	-0.50521606
28	0xbea3bedd	-0.31981555
29	0xbf188522	-0.59578145
30	0xbe167d58	-0.14696252
31	0xbf140ce2	-0.5783216
32	0xbf70408b	-0.93848485
33	0xbe186dff	-0.1488571
34	0xc0292b0a	-2.643252
35	0xbf60ecdf	-0.87861437
36	0xbc66239b	-0.014046575
37	0xbfa6c19d	-1.3027836
38	0xbf2560c8	-0.646008
39	0xbf1005f5	-0.5625909
40	0xbe9aebce	-0.3025803
41	0xbe872440	-0.26394844
42	0xbf774820	-0.9659443
43	0xbe0b2994	-0.1359008
44	0xbff665b2	-1.9249785
45	0xbf2ebde9	-0.6825853
46	0xbf5a57a4	-0.8528998
47	0xbeb43ce7	-0.35202715
48	0xbf29466a	-0.6612307
49	0xbf436902	-0.76332104
50	0xbeaa4840	-0.33258247
51	0xbfb4966c	-1.4108405
52	0xbf148e35	-0.5802949
53	0xbe9cb346	-0.30605525
54	0xbf54a052	-0.8305713
55	0xbf02d93d	-0.5111273
56	0xbfb18230	-1.3867855
57	0xbeb457bc	-0.35223186
58	0xbf5ef41a	-0.8709122
59	0xbfe3e5c9	-1.78045
60	0xbefb48bc	-0.4907893
61	0xbf73b723	-0.9520132
62	0xbec4720a	-0.38368255
63	0xbf622a1d	-0.8834551

encoder.enc2.1.running_mean f4 [64]
0	0xbf304a7a	-0.6886364
1	0xbfdeb592	-1.7399161
2	0xc011a9c0	-2.2759857
3	0x4026b025	2.604501
4	0xc0cfd448	-6.4946632
5	0x3fae5d60	1.3622246
6	0xbfa45b72	-1.2840407
7	0x4070fea4	3.765542
8	0xbedf2ee9	-0.43590477
9	0x3f1b41a3	0.6064703
10	0x3f698996	0.91225564
11	0xc03d2e1d	-2.9559395
12	0x3f42b811	0.76062113
13	0xc0ac2a9c	-5.3802013
14	0x402fddbb	2.7479084
15	0xbfabfcd2	-1.343653
16	0x40976975	4.731623
17	0x3f11d21f	0.56961244
18	0x3f0f6ebd	0.5602835
19	0xc0a887c2	-5.266572
20	0xc0dd3c44	-6.9136066
21	0xbde5519a	-0.11197205
22	0xbffd1c06	-1.9774177
23	0x40819fa9	4.05074
24	0x3e9e8c1e	0.30966276
25	0xbf7c53a5	-0.9856513
26	0x3d295188	0.04133752
27	0xc09fdd10	-4.995735
28	0xc09664ab	-4.6997886
29	0xc0d0b2f7	-6.5218463
30	0xbeceb914	-0.40375578
31	0x3efca917	0.49347755
32	0xbf98b8e2	-1.1931422
33	0xc0dfcd39	-6.9938016
34	0x3f0c0280	0.54691315
35	0x3f2e883e	0.6817664
36	0xc0deb0e3	-6.9590926
37	0x4073b559	3.8079436
38	0xc0825e89	-4.07404
39	0xbf66c899	-0.9014984
40	0xbf258710	-0.64659214
41	0xbf4e482c	-0.80578876
42	0xbe9125a2	-0.28349024
43	0xc0e37333	-7.1078124
44	0x3ecdf9c2	0.40229613
45	0xc0059884	-2.0874338
46	0xbf8c2cf2	-1.0951216
47	0xc109f39d	-8.621976
48	0x3ebde81c	0.37091148
49	0x3fe033e5	1.7515837
50	0x3fdcfd61	1.7264825
51	0xbe0d9faa	-0.13830438
52	0xbecfd0be	-0.40588945
53	0xc04644d8	-3.097952
54	0xbf8fdf3d	-1.1240002
55	0xc0a91233	-5.2834716
56	0xc0296773	-2.646939
57	0xbeb73975	-0.35786024
58	0xc1213b8b	-10.077037
59	0x3fca6903	1.5813297
60	0xc082f46a	-4.0923357
61	0xc0135025	-2.3017666
62	0xc002346c	-2.0344496
63	0x3e8c0989	0.27351025

encoder.enc2.1.running_var f4 [64]
0	0x40371da2	2.8611836
1	0x40d443a3	6.6332564
2	0x40806f71	4.0136037
3	0x409bdb66	4.870532
4	0x4182b462	16.338078
5	0x426036f3	56.05366
6	0x4067adb4	3.619977
7	0x412f810f	10.969008
8	0x3ef3e753	0.47637424
9	0x40ba40e9	5.8204236
10	0x40cacbde	6.337386
11	0x4054f024	3.327157
12	0x3fad2fe6	1.3530242
13	0x42477c55	49.871418
14	0x408ac18a	4.3361254
15	0x40b165a9	5.5436597
16	0x408f20a1	4.472733
17	0x410c7ccf	8.780471
18	0x3fc57026	1.542485
19	0x411b74c7	9.71601
20	0x41a10848	20.129044
21	0x409e84d4	4.9537144
22	0x40730b60	3.7975693
23	0x4197a13f	18.953733
24	0x40169341	2.3527377
25	0x4082950d	4.0806947
26	0x3fb08b91	1.3792592
27	0x408a30dd	4.3184648
28	0x41358de5	11.347142
29	0x418033d5	16.025309
30	0x4174549f	15.270659
31	0x3fb8c3bf	1.4434737
32	0x407076eb	3.7572582
33	0x4280bff4	64.37491
34	0x3f5f6e93	0.872781
35	0x409c005f	4.8750453
36	0x428cbb15	70.365395
37	0x41270f7a	10.441278
38	0x4115a635	9.353078
39	0x4046335b	3.0968845
40	0x40e967d1	7.293923
41	0x4285f1b7	66.9721
42	0x4093c03b	4.6172156
43	0x4290ef64	72.46756
44	0x3f4df0ce	0.80445564
45	0x4015d474	2.341092
46	0x3f925a4f	1.143381
47	0x4299a573	76.82314
48	0x40cbd19f	6.3693385
49	0x40e163c5	7.043429
50	0x41c99a64	25.200386
51	0x4008bbaf	2.1364553
52	0x404dbf7a	3.2148118
53	0x41c6c3bc	24.845573
54	0x40242043	2.564469
55	0x4188fa74	17.122292
56	0x4025027f	2.5782773
57	0x409acd18	4.837536
58	0x42edfd0a	118.99422
59	0x3fa9a726	1.3254135
60	0x40d07ab8	6.5149803
61	0x4040784a	3.0073419
62	0x409ca800	4.895508
63	0x4083ee23	4.1228194

encoder.enc3.1.weight f4 [3, 5504]
0	0x3d36f6cb	0.044668954
1	0xbcdaf518	-0.026728198
2	0x3d15f2a7	0.036608364
3	0xbd0a0a95	-0.033701498
4	0x3bacef3e	0.0052775433
5	0xbd3b5fc0	-0.04574561
6	0xbe60d217	-0.21955143
7	0xbe9aad3a	-0.30210286
8	0xbd8a9600	-0.067668915
9	0xbe2ffccc	-0.17186278
10	0x3d981455	0.07425753
11	0x3d0b4e3c	0.034010157
12	0x3eaddb57	0.33956406
13	0x3e0c949e	0.13728568
14	0xbb983a36	-0.004645611
15	0xbd924646	-0.0714231
16	0xbe57c7b9	-0.21072282
17	0xbe415674	-0.18880635
18	0xbdc4f991	-0.096179135
19	0x3c5df383	0.013546827
20	0x3f1d3392	0.61406815
21	0x3e08caa1	0.13358547
22	0xbe46c15a	-0.19409695
23	0xbe62a993	-0.22135
24	0xbe9e120b	-0.3087314
25	0x3e4e6528	0.20155776
26	0x3e3ca83c	0.18423551
27	0x3e073d7d	0.1320705
28	0x3e8f4b81	0.27987292
29	0xbf112745	-0.56700546
30	0xbebfbe91	-0.37450078
31	0xbf34635a	-0.704641
32	0xbf53b7df	-0.8270244
33	0xbf5fe53d	-0.87459165
34	0xbf41b0c9	-0.7566038
35	0xbf1e3a09	-0.61807305
36	0x3e7bfac1	0.24607374
37	0x3d5fdb1e	0.054652326
38	0x400825e5	2.127313
39	0xbe6db5c7	-0.23213874
40	0xbf39cacb	-0.7257506
41	0x3f43b38c	0.7644584
42	0xbfba34c9	-1.4547359
43	0xbfabf569	-1.3434268
44	0xbf8adcd6	-1.0848644
45	0xbf7e2ca7	-0.99286884
46	0xbfa71e0f	-1.3056048
47	0xbff6cb1e	-1.9280736
48	0xbeaa5f71	-0.3327594
49	0x3f838a23	1.0276531
50	0x3f80f265	1.0073973
51	0x3e3acf32	0.18243101
52	0x3f08d065	0.53442985
53	0x3f052b70	0.52019405
54	0x3eb231db	0.34803662
55	0x3f50bb90	0.815362
56	0xbe301776	-0.1719645
57	0xbe79de06	-0.24401101
58	0xbf36b4b5	-0.7136949
59	0x3c74fe1f	0.014953165
60	0xbe1ea402	-0.15492252
61	0x3ccc870e	0.024966743
62	0xbca8f73b	-0.020625701
63	0x3e09e8fa	0.1346778
64	0xbd1799c1	-0.037011866
65	0xbde9a7eb	-0.11408981
66	0x3dbf52d8	0.09341973
67	0xbe533970	-0.2062738
68	0xbe14571b	-0.14486353
69	0x3da4d53e	0.08048485
70	0xbe57a5bb	-0.21059315
71	0x3da2e608	0.07954031
72	0x3e4cfa03	0.20017247
73	0x3de9b21c	0.11410925
74	0xbda7dd8c	-0.081965536
75	0x3e19127e	0.1494846
76	0xbef162bc	-0.4714564
77	0x3d697652	0.056997605
78	0x3e45fe91	0.1933539
79	0xbef89a93	-0.4855543
80	0x3e35a8fb	0.17740242
81	0xbf21c3ff	-0.6318969
82	0x3ddfe25b	0.10931846
83	0xbf41b363	-0.7566435
84	0x3d10b0a4	0.035324708
85	0x3bafb59f	0.005362227
86	0xbede37c1	-0.43401912
87	0xbc748117	-0.014923356
88	0xbe195960	-0.149755
89	0xbdda2f5a	-0.10653563
90	0xbecd7da0	-0.40134907
91	0xbd986e9c	-0.07442972
92	0x3c8d0d5b	0.017218282
93	0x3d03c3b2	0.03216905
94	0xbf10d811	-0.5657969
95	0x3f123657	0.57114166
96	0x3f1420a0	0.5786228
97	0x3e196718	0.14980733
98	0xbe81104f	-0.25207755
99	0xbe8d7223	-0.27626142
100	0x3eba150e	0.36344188
101	0xbe23240b	-0.15931718
102	0xbe06acfc	-0.13151926
103	0x3e25a178	0.16174877
104	0x3eb5e0c6	0.3552305
105	0xbe9052e8	-0.28188252
106	0x3dde6b8a	0.10860355
107	0x3dd56e76	0.104214594
108	0x3c0663d0	0.008202508
109	0xbe967527	-0.29386255
110	0x3e4cc190	0.19995713
111	0x3e05023f	0.12989138
112	0x3e117068	0.14203036
113	0x3e2b5182	0.16730312
114	0x3e0509ac	0.12991971
115	0x3dc669da	0.09688158
116	0x3ed3b10c	0.41346014
117	0x3e5998b6	0.21249661
118	0x3e3f4752	0.1867955
119	0x3d03e229	0.032198105
120	0xbdf2b22b	-0.11850389
121	0xbe40b41b	-0.18818705
122	0xbce08410	-0.027406722
123	0xbf1edb49	-0.6205335
124	0xbfe46693	-1.7843803
125	0xbf95a9f4	-1.169249
126	0x3fcf41fc	1.6192012
127	0x3f4c01ed	0.7969044
128	0xbda9ff42	-0.0830064
129	0x3ef4bf5e	0.47802252
130	0x3bea4a64	0.0071499813
131	0x3e2a5f9f	0.16638039
132	0xbd50fced	-0.05102246
133	0xbe41d704	-0.18929678
134	0x3e4b2472	0.19838122
135	0x3e1bcebe	0.15215585
136	0x398f34ed	0.00027314518
137	0xbdf203c3	-0.11817124
138	0xbdcdc868	-0.1004799
139	0xbe0be443	-0.13661294
140	0x3bdbcdb1	0.00670787
141	0x3dd3426e	0.10315405
142	0x3e171ddf	0.14757489
143	0x3e2f0b16	0.17094073
144	0x3d1b0b21	0.03785241
145	0xbe3f48a5	-0.18680055
146	0xbe864674	-0.26225626
147	0xbde12dce	-0.10995065
148	0x3d2244a5	0.039616246
149	0x3e03e11d	0.12878843
150	0x3d6962f3	0.05697913
151	0x3e500fc5	0.20318516
152	0x3e620223	0.22071128
153	0x3ea755ce	0.3268265
154	0x3ec05923	0.37568006
155	0x3daf0467	0.085457616
156	0x3f042202	0.5161439
157	0x3f3002b3	0.6875412
158	0x3efc64dd	0.49295703
159	0x3e8e1aee	0.2775492
160	0xbe3c2839	-0.18374719
161	0xbe9ddd59	-0.30832937
162	0xbf012aff	-0.5045623
163	0xbe5cdfc1	-0.2156973
164	0xbe8950d3	-0.26819476
165	0xbf10e4a7	-0.56598896
166	0xbe82890c	-0.25495183
167	0xbeaa0397	-0.33205864
168	0x3e56a96c	0.20963067
169	0xbe4e73fa	-0.20161429
170	0x3e73320d	0.23749562
171	0x3d0faae5	0.035075087
172	0xbc2795cc	-0.010228585
173	0xbd68f270	-0.05687183
174	0xbda43b85	-0.08019165
175	0xbe1cb0cb	-0.15301816
176	0xbc934e3e	-0.017981645
177	0xbd1e3fbd	-0.038635004
178	0xbbad15a4	-0.005282121
179	0xbe93b4ae	-0.28848785
180	0x3d3ea05e	0.046539657
181	0x3e64ea76	0.22355065
182	0xbecf124f	-0.40443656
183	0xbe565ae1	-0.20933105
184	0xbded22a9	-0.115788765
185	0x3e2b6b7c	0.16740221
186	0x3e6668af	0.22500871
187	0x3e91aae5	0.28450695
188	0x3e23381c	0.15939373
189	0x3dad781b	0.08470174
190	0x3f0f084a	0.55872023
191	0xbd83627c	-0.06415269
192	0x3e39e941	0.18155386
193	0xbea4e2c6	-0.32204264
194	0x3edd8909	0.43268612
195	0x3d02682e	0.031837635
196	0x3e3b5ce8	0.1829716
197	0x3f34272f	0.7037229
198	0x3f348e29	0.7052942
199	0x3f22f7c0	0.63659286
200	0x3e1d5196	0.15363154
201	0x3f3170a1	0.69312483
202	0x3fa3a6db	1.2785295
203	0x3ee72815	0.45147768
204	0xbd075507	-0.033040073
205	0x3eedd78e	0.46453518
206	0x3e96e290	0.29469728
207	0x3d509dfb	0.050931912
208	0xbeede44d	-0.46463242
209	0xbe46f4e6	-0.19429359
210	0x3d6cfdf6	0.057859384
211	0xbed549af	-0.4165778
212	0x3ed8ef5f	0.42370126
213	0x3e9c11ed	0.30482426
214	0xbe595316	-0.21223101
215	0x3f5f122d	0.8713711
216	0x3f0949fc	0.53628516
217	0x3eaca498	0.33719325
218	0x3f09ae8b	0.53781956
219	0xbd79d08a	-0.060989894
220	0x3f16238d	0.58647996
221	0x3f216372	0.63042367
222	0x3e916c11	0.2840276
223	0x3f6b50ea	0.9192034
224	0x3c8675b9	0.016413556
225	0xbf59c999	-0.8507324
226	0xbf84cd7d	-1.037521
227	0xbe2cb901	-0.16867448
228	0xbec6425f	-0.38722512
229	0x3ea9daa8	0.33174634
230	0x3e97e00f	0.2966313
231	0x3e0bb75b	0.13644163
232	0xbea4e5c0	-0.32206535
233	0x3abc88bd	0.0014384013
234	0xbe809964	-0.25117028
235	0x3ed08f34	0.40734255
236	0xbd4f27a4	-0.050574914
237	0x3ecdcc7d	0.40195075
238	0x3e79add5	0.24382718
239	0x3d5b1a19	0.053491686
240	0x3f4c0a13	0.7970287
241	0x3ef88a54	0.48543036
242	0x3e889d5b	0.26682553
243	0x3c7f7b9e	0.0155934375
244	0xbecd784e	-0.40130848
245	0xbee7dcbf	-0.45285603
246	0xbe8ab3c4	-0.27090275
247	0xbeb68525	-0.35648456
248	0xbe420e9e	-0.18950889
249	0xbf85187b	-1.0398096
250	0xbee7d35e	-0.45278448
251	0xbe90e148	-0.28296876
252	0xbf13c70d	-0.577256
253	0xbf4e838e	-0.80669487
254	0xbf511ae9	-0.81681687
255	0xbf2ac490	-0.6670618

encoder.enc3.1.bias f4 [3]
0	0xbd4fd10b	-0.05073647
1	0xbea6d10c	-0.32581365
2	0xbd8df8f3	-0.06932249

fc_location.bias f4 [3]
0	0x403ad270	2.919094
1	0xbfe320e7	-1.7744416
2	0x40412971	3.0181544
