tests/models/gaia_decoder.onnx (onnx, 196597 bytes, 13 tensors)

dec1.0.weight f4 [5504, 3]
-0.62382853 0.112943664 0.5495542 -0.06226573 0.666281 -0.032042716 0.17798711 -0.647189
0.26199615 0.40617245 0.3030142 0.6554981 -0.38266495 0.6799074 0.700069 -0.2386007
-0.22251923 -0.30033243 -0.28557202 0.21275833 -0.4152414 0.24645607 -0.6248103 -0.80710477
0.41050172 -0.8879641 -0.2494173 -0.4259048 0.65819204 0.82089096 0.31411442 -0.4576943
0.26313382 0.3955714 -0.47288948 -0.35956123 -0.4205813 -0.41605198 0.5502188 -0.20761982
0.18900868 -0.37459534 -0.11168576 -0.22584654 0.67691964 0.19769473 -0.5766497 0.5657747
0.030285364 0.5604143 0.037223004 -0.25177234 0.09339251 -0.69301844 -0.28387216 0.023663301
0.17129935 -0.067737974 -0.12226217 0.105075225 -0.08797989 0.28789732 -0.47528976 0.111686036
-0.42250574 -0.14034453 -0.21306914 0.08367451 -0.051368557 -0.70694464 0.6073487 -0.31324133
0.5109086 -0.21458425 -0.19361147 -0.07425282 -0.08318875 -0.27964503 0.28746414 0.01835136
0.6921899 0.28636733 -0.10194841 -0.28054503 0.20026173 -0.2685345 0.05987162 -0.5258661
0.30281433 0.5127611 0.2503458 -0.42098877 0.33280557 0.07952627 0.22333717 0.03402426
-0.4550565 0.81730974 -0.30132937 -0.48367885 0.74601996 0.29248118 0.20782717 0.29744104
0.90288967 -0.43899748 0.6686814 0.24820642 0.15963486 -0.30334806 -0.13174002 0.15757805
-0.3546095 -0.61296976 0.4136518 -0.20429693 -0.60391146 0.6195267 -1.0425868 -0.47635356
0.57014143 -0.109933406 0.66342473 0.19458984 -0.07454246 -1.1366948 0.6539665 -0.48935857
-0.5353447 -0.27346858 0.3605733 -0.03411856 0.11272871 0.24740672 -0.4751882 0.05214903
0.67397374 0.7150422 0.17011325 -0.27288347 -0.09299193 -0.0548477 0.053865664 0.2539246
0.45660865 -0.4436551 -0.56784225 -0.23712112 -0.37533838 -0.4290828 -1.0650036 0.45263368
0.5626696 0.15725222 -0.009219215 0.042437684 0.16992135 -0.49804476 -0.43322513 0.2825895
1.3976796 1.3243729 0.468545 -0.2906458 0.033628654 0.5117785 -0.42870197 -0.097611874
0.12711121 -0.40695938 0.52315 -0.18598182 0.5769198 -0.10907498 -0.5519535 0.09336181
-0.5883025 -0.19609499 -0.19645946 0.12966377 -0.15090556 0.48394987 -0.23941351 0.3002433
-0.30105835 0.54213125 0.11992153 -0.574 0.24693568 -0.42692134 0.123115525 0.12337828
0.08268762 -0.36758327 0.117076 -0.3977708 0.6459035 -0.3254714 -0.2416913 0.2911485
-0.72266644 -0.13344178 -0.8556387 0.0014445251 0.6696987 -0.27939963 0.6829347 0.24522291
0.20304734 -0.2524901 -0.091306634 0.15930252 0.07119649 -0.19136062 -0.35932806 0.650844
0.24547014 -0.6150698 -0.75282884 0.37840667 0.35811794 0.591513 -0.103306636 0.14507256
-0.19479793 -0.37485147 -0.4277415 0.17528008 0.50925034 0.47228757 -0.027840061 0.03867458
0.24145572 0.45340168 -0.8982009 0.59962684 0.10137976 -0.03312578 -0.053618312 0.13006641
0.28031558 0.41257498 0.10333957 -0.07448914 -0.16384885 0.14807482 0.09713281 0.54089206
0.504757 -0.061479528 -0.24901782 0.31520662 0.13894333 1.1555479 0.013667229 -0.785701
00000000: 3ab3 1fbf 024f e73d 96af 0c3f 5a0a 7fbd
00000010: 6491 2a3f 393f 03bd 4142 363e 2eae 25bf
00000020: 5c24 863e d6f5 cf3e ad24 9b3e b9ce 273f
00000030: a9ec c3be 690e 2e3f b937 333f be53 74be
00000040: 15dc 63be 2cc5 99be 7f36 92be 52dd 593e
00000050: 859a d4be fb5e 7c3e 91f3 1fbf 6b9e 4ebf
00000060: 482d d23e 9e51 63bf 4067 7fbe 3210 dabe
00000070: 467f 283f e925 523f 9bd3 a03e e856 eabe
00000080: 7ab9 863e 5688 ca3e 921e f2be 6918 b8be
00000090: 6f56 d7be c404 d5be 24db 0c3f 4a9a 54be
000000a0: 7e8b 413e f6ca bfbe 81bb e4bd 5144 67be
000000b0: 9b4a 2d3f 7d70 4a3e 519f 13bf 9cd6 103f
000000c0: 0319 f83c 5077 0f3f 2677 183d 4ee8 80be
000000d0: 9344 bf3d a869 31bf b157 91be 8ad9 c13c
000000e0: 1969 2f3e 35ba 8abd 9764 fabd ae31 d73d
000000f0: cd2e b4bd 4767 933e 2e59 f3be a6bb e43d
00000100: ac52 d8be 7ab6 0fbe cc2e 5abe 8b5d ab3d
00000110: d667 52bd 53fa 34bf 347b 1b3f 2b61 a0be
00000120: e8ca 023f f9bb 5bbe 1642 46be dd11 98bd
00000130: dd5e aabd a22d 8fbe 802e 933e 9755 963c
00000140: 5b33 313f bd9e 923e 54ca d0bd 99a3 8fbe
00000150: 6911 4d3e 5b7d 89be f23b 753d 299f 06bf
00000160: 7b0a 9b3e 5044 033f 532d 803e d78b d7be
00000170: 7e65 aa3e abde a23d 80b2 643e 065d 0b3d
00000180: 2afd e8be 363b 513f d847 9abe c1a4 f7be
00000190: 2afb 3e3f 18c0 953e a5d0 543e 314a 983e
000001a0: c723 673f 47c4 e0be b42e 2b3f d329 7e3e
000001b0: 5277 233e 7050 9bbe dbe6 06be 245c 213e
000001c0: 608f b5be 96eb 1cbf 2bca d33e 3733 51be
000001d0: f199 1abf 4d99 1e3f 7c73 85bf 9de4 f3be
000001e0: caf4 113f c424 e1bd 34d6 293f 8f42 473e
000001f0: b8a9 98bd 377f 91bf 596a 273f 358d fabe
00000200: 5a0c 09bf 1304 8cbe 109d b83e e7bf 0bbd
00000210: 4fde e63d 3058 7d3e de4b f3be 399a 553d
00000220: 8b89 2c3f 010d 373f 2b32 2e3e 62b7 8bbe
00000230: 8e72 bebd fba7 60bd 3ea2 5c3d 6802 823e
00000240: 9cc8 e93e c326 e3be 1c5e 11bf e1cf 72be
00000250: 5a2c c0be beb0 dbbe 0a52 88bf 9abf e73e
00000260: 1d0b 103f ba06 213e 310c 17bc 23d3 2d3d
00000270: ddff 2d3e b9ff febe afcf ddbe 92af 903e
00000280: 2ae7 b23f 0d85 a93f 21e5 ef3e 87cf 94be
00000290: 33be 093d ea03 033f d37e dbbe bce8 c7bd
000002a0: 7129 023e fb5c d0be 29ed 053f 0572 3ebe
000002b0: 04b1 133f b462 dfbd d34c 0dbf 7a34 bf3d
000002c0: fe9a 16bf 20cd 48be ab2c 49be 94c6 043e
000002d0: fd86 1abe 47c8 f73e d128 75be 7db9 993e
000002e0: 5224 9abe 1dc9 0a3f 6b99 f53d aaf1 12bf
000002f0: b5dc 7c3e 6f95 dabe fe23 fc3d c0ad fc3d
00000300: 2058 a93d e033 bcbe 8bc5 ef3d 9da8 cbbe
00000310: ef59 253f 30a4 a6be ed7d 77be 6b11 953e
00000320: ab00 39bf f6a4 08be 230b 5bbf 3856 bd3a
00000330: 6071 2b3f 780d 8fbe cfd4 2e3f b71b 7b3e
00000340: a4eb 4f3e 6246 81be f9fe babd 3320 233e
00000350: 77cf 913d 0af4 43be d9f9 b7be b69d 263f
00000360: 865c 7b3e 3775 1dbf 64b9 40bf 85be c13e
00000370: 3c5b b73e 656d 173f 6e92 d3bd e78d 143e
00000380: 1c79 47be 88ec bfbe ef00 dbbe 9f7c 333e
00000390: 3b5e 023f adcf f13e d710 e4bc 3d69 1e3d
000003a0: 2b40 773e 4424 e83e 7ff0 65bf 2581 193f
000003b0: 31a0 cf3d e6ae 07bd e09e 5bbd 2130 053e
000003c0: 8685 8f3e 073d d33e b2a3 d33d c38d 98bd
000003d0: fec7 27be eda0 173e 91ed c63d e777 0a3f
000003e0: c137 013f f5d1 7bbd 87fe 7ebe c362 a13e
000003f0: 2947 0e3e fee8 933f 83ec 5f3c b323 49bf

dec1.0.bias f4 [5504]
-0.030440817 0.64670837 0.47942212 -0.4491475 -0.9524427 0.3179088 0.09266067 -0.027214525
0.090945 -1.0584633 -0.5398463 0.1692731 0.4904079 0.6125195 0.5197333 0.47834224
0.26045662 -0.5848862 0.22750504 0.6010681 -0.29905552 0.39130616 0.10584897 0.10868479
0.15441641 0.47462508 0.15817453 0.5063014 0.3160273 0.38607866 -0.48469642 -0.07152306
-0.30042318 -0.85643274 0.019675162 0.19069785 -0.2810485 -0.26455444 -0.50151163 -0.064772554
0.62366647 -0.32733864 0.345762 0.33015358 -0.3592347 -0.29304272 -0.2131894 0.1203574
0.25752318 0.33261272 -0.36834088 0.28364486 -0.23401661 -0.81874967 -0.45049098 -0.09023852
0.50892186 -0.35350576 0.12620974 0.07410105 -0.104872085 -0.51491636 0.5608996 0.3940551
0.35222772 -0.0462974 -0.567278 -0.23428881 0.06901978 0.3233484 0.089821495 0.8194205
0.25821683 -0.5199206 -0.35262477 0.14480497 -0.46338722 0.47724584 -0.6791145 0.1578883
0.09129263 0.4029409 0.008548894 0.24639586 -0.4287383 0.10782549 0.66598517 -0.76015013
0.18863957 0.30846402 -0.6707934 0.5935324 0.20954578 -0.29823536 -0.0037764937 0.27181768
0.21371315 0.08101286 0.3279442 -0.0877461 -0.18460429 -0.24851723 0.24837084 -0.32956797
-0.62602717 -0.10001161 -0.69739723 -0.17797652 -0.2349262 -0.09896933 -0.0050231675 0.344795
-0.20741387 -0.30619106 -0.7789273 -0.6457588 0.6452579 -0.64461887 0.1614918 0.047923256
0.20172872 0.034079645 0.30879658 -0.7818765 -0.22414131 0.30740008 0.5813675 -0.5974905
-0.4020954 0.40585402 -0.5589109 0.014473981 -0.40973458 0.40364486 -0.86167496 0.43903476
-0.08926292 0.30029425 0.54546547 -0.20193978 0.61948633 0.3885355 0.3461244 0.04121275
-0.12151807 -0.5773572 -0.024124965 -0.082051694 -0.45041743 0.048185863 -0.45187718 -0.4501297
-0.40437046 -0.3026168 0.0112784365 -0.5390364 0.31970933 0.036708627 -0.25344104 0.41610444
-0.25806153 0.25395602 -0.17368901 -0.068135746 -0.59053016 -0.042387795 -0.036980968 -0.6617871
-0.37228885 0.6365334 -0.0016089526 0.17685983 -0.36354128 0.12533227 0.54030854 -0.44479534
-0.2575604 -0.47488642 0.2624249 0.48858702 0.34392768 -0.674582 -1.0507327 -0.6878518
0.16174889 -0.13021721 -0.73273605 0.18625191 -0.2566732 0.21813579 -0.6433204 0.40100414
-0.04611527 -0.28619477 0.5433847 0.5948454 0.067846425 -0.54825246 -0.8787432 -0.58269686
0.6355004 -0.5934917 0.38070452 -0.7098806 0.53968424 0.25086287 -0.51470894 -0.6130738
0.15908565 0.36381587 0.2220841 -0.84411603 -0.31402582 0.28905463 -0.58079046 0.09431399
0.14225903 -0.7911276 -0.053287946 0.19368629 -0.35327202 0.17514186 -0.50780356 -0.11700471
-0.28954324 0.1817139 0.33608606 0.30231175 0.23013061 0.013796945 -0.16571076 -0.710854
0.44767722 -0.23255184 -0.5828243 -0.38294744 -0.3019815 0.14821033 -0.101106316 -0.66568077
-0.31981698 -0.4438952 -0.0021338314 0.57550174 0.075154595 -0.53788656 0.27776322 -0.7133581
0.22241186 -0.15446639 -0.5112417 -0.12171104 -0.27404904 -0.51862305 -0.3665993 0.47621387
00000000: 055f f9bc ae8e 253f d176 f53e a9f6 e5be
00000010: 49d3 73bf f1c4 a23e e1c4 bd3d fff0 debc
00000020: 5f41 ba3d ba7b 87bf 5e33 0abf ed55 2d3e
00000030: bf16 fb3e 14ce 1c3f 3e0d 053f 46e9 f43e
00000040: 925a 853e 1abb 15bf 15f7 683e 99df 193f
00000050: ce1d 99be 4859 c83e 58c7 d83d 2296 de3d
00000060: 561f 1e3e 0f02 f33e 81f8 213e f89c 013f
00000070: 55ce a13e 1aac c53e 212a f8be af7a 92bd
00000080: 11d1 99be 2d3f 5bbf ce2d a13c 4c46 433e
00000090: 97e5 8fbe ae73 87be 1163 00bf 79a7 84bd
000000a0: 9ba8 1f3f ee98 a7be b807 b13e e409 a93e
000000b0: 9ced b7be b209 96be 524e 5abe f17d f63d
000000c0: 14da 833e 374c aa3e 2d97 bcbe e639 913e
000000d0: 0da2 6fbe 9499 51bf c1a6 e6be f9ce b8bd
000000e0: b448 023f b5fe b4be 203d 013e 4bc2 973d
000000f0: 2dc7 d6bd 8fd1 03bf 1e97 0f3f 97c1 c93e
00000100: 3157 b43e 58a2 3dbd 2239 11bf 68e9 6fbe
00000110: 3e5a 8d3d ec8d a53e 55f4 b73d 8bc5 513f
00000120: ff34 843e 8419 05bf 3c8b b4be c147 143e
00000130: 1741 edbe 9159 f43e 73da 2dbf 78ad 213e
00000140: a1f7 ba3d 454e ce3e a910 0c3c 324f 7c3e
00000150: 9683 dbbe 9cd3 dc3d 017e 2a3f 3399 42bf
00000160: bb2a 413e ffee 9d3e 1eb9 2bbf bdf1 173f
00000170: 2b93 563e 4eb2 98be 0d7f 77bb b02b 8b3e
00000180: 9fd7 5a3e 12ea a53d 4de8 a73e 3ab4 b3bd
00000190: e808 3dbe 4d7b 7ebe ed54 7e3e 22bd a8be
000001a0: 5143 20bf e3d2 ccbd a088 32bf 7a3f 36be
000001b0: 7e90 70be 6fb0 cabd 6299 a4bb f888 b03e
000001c0: 4d64 54be 13c5 9cbe c867 47bf 7350 25bf
000001d0: 9f2f 253f be05 25bf 1b5e 253e 2d4b 443d
000001e0: f991 4e3e 1997 0b3d 961a 9e3e 0f29 48bf
000001f0: 4d85 65be 8b63 9d3e 80d4 143f 23f5 18bf
00000200: 73df cdbe 19cc cf3e c914 0fbf 4724 6d3c
00000210: bbc8 d1be 8aaa ce3e bb96 5cbf 2ac9 e03e
00000220: 7acf b6bd 2bc0 993e a0a3 0b3f 4dc9 4ebe
00000230: a896 1e3f 20ee c63e 3837 b13e b3ce 283d
00000240: 77de f8bd aecd 13bf b8a1 c5bc b80a a8bd
00000250: 1d9d e6be 8a5e 453d 725c e7be 6677 e6be
00000260: a509 cfbe 97f0 9abe 31c9 383c 4afe 09bf
00000270: f1b0 a33e c95b 163d 06c3 81be a40b d53e
00000280: a420 84be 8606 823e 88db 31be c18a 8bbd
00000290: fc2c 17bf d39e 2dbd 5b79 17bd e16a 29bf
000002a0: a59c bebe daf3 223f 7ee3 d2ba be1a 353e
000002b0: 1522 babe 1a57 003e a951 0a3f 37bc e3be
000002c0: f5de 83be 5024 f3be 8e5c 863e 1428 fa3e
000002d0: 4a17 b03e 68b1 2cbf 697e 86bf 0e17 30bf
000002e0: 80a1 253e a957 05be 9794 3bbf d2b8 3e3e
000002f0: ab6a 83be fd5e 5f3e a5b0 24bf 6a50 cd3e
00000300: 5ee3 3cbd 1f88 92be 421b 0b3f ca47 183f
00000310: 11f3 8a3d 465a 0cbf 50f5 60bf 9f2b 15bf
00000320: 27b0 223f 12ef 17bf b4eb c23e bcba 35bf
00000330: bf28 0a3f 1971 803e f7c3 03bf 68f2 1cbf
00000340: 59e7 223e 1346 ba3e 046a 633e fd17 58bf
00000350: fec7 a0be f8fe 933e afae 14bf b127 c13d
00000360: 5aac 113e 5787 4abf 7644 5abd b355 463e
00000370: 12e0 b4be 6358 333e 6aff 01bf 2aa0 efbd
00000380: 033f 94be 3513 3a3e 7913 ac3e 9bc8 9a3e
00000390: 5ca7 6b3e 950c 623c 15b0 29be 87fa 35bf
000003a0: f335 e53e 1222 6ebe f933 15bf b011 c4be
000003b0: 529d 9abe 73c4 173e d410 cfbd 0e6a 2abf
000003c0: 0dbf a3be 3b46 e3be c0d7 0bbb 1554 133f
000003d0: a7ea 993d efb2 09bf fb36 8e3e a39e 36bf
000003e0: efbf 633e 702c 1ebe bce0 02bf a343 f9bd
000003f0: 2850 8cbe 7bc4 04bf e7b2 bbbe 4ed2 f33e

dec1.2.weight f4 [64]
0.9238976 1.0771636 1.0925813 0.99490404 0.8914452 0.9110614 1.0837132 0.9497788
1.0712428 1.1038424 1.1157086 1.0213675 1.0383419 1.0785912 1.0654875 1.1276335
1.0972017 1.0887315 1.0998696 1.1026752 1.0641986 1.006712 1.1749781 0.9585829
1.1699882 0.90498763 1.1064049 1.1802045 0.96679133 1.0929477 0.94538444 1.029757
1.0421408 0.9948161 1.0371796 1.1399544 1.0037527 1.0908432 1.004792 0.98389447
0.9216099 0.90476453 0.9200092 1.0245321 1.1502854 1.0090563 1.0054404 1.0827571
1.0400951 1.0302202 1.04486 1.0959157 0.93129885 1.0391049 0.9925105 1.0036331
0.9970249 1.0876515 1.1128219 1.0955049 0.9322586 1.1632793 1.0736535 1.0188705
00000000: 8e84 6c3f 7fe0 893f b4d9 8b3f 08b2 7e3f
00000010: c135 643f 523b 693f 1db7 8a3f b424 733f
00000020: 7c1e 893f b54a 8d3f 8acf 8e3f 2cbc 823f
00000030: 63e8 843f 470f 8a3f e561 883f 4b56 903f
00000040: 1b71 8c3f 8e5b 8b3f 87c8 8c3f 7624 8d3f
00000050: a937 883f f0db 803f af65 963f b065 753f
00000060: 2cc2 953f 45ad 673f ad9e 8d3f f110 973f
00000070: a37f 773f b6e5 8b3f b704 723f 14cf 833f
00000080: df64 853f 45ac 7e3f 4dc2 843f 07ea 913f
00000090: f87a 803f c0a0 8b3f 069d 803f 82e0 7b3f
000000a0: a0ee 6b3f a69e 673f b985 6b3f de23 833f
000000b0: 8d3c 933f c228 813f 45b2 803f c997 8a3f
000000c0: d621 853f 41de 833f f9bd 853f f746 8c3f
000000d0: 9a69 6e3f 6401 853f 2b15 7e3f 0d77 803f
000000e0: 063d 7f3f 2a38 8b3f f370 8e3f 8139 8c3f
000000f0: 80a8 6e3f 56e6 943f 7a6d 893f 596a 823f

dec1.2.bias f4 [64]
-0.06855741 -0.14344792 -0.1309926 -0.1208214 -0.06582296 -0.19356287 -0.16405159 -0.09371551
-0.10789769 -0.0932505 -0.1265473 -0.11193656 -0.108925715 -0.16577177 -0.130169 -0.13561566
-0.08158869 -0.049732693 -0.15639015 -0.17995265 -0.0855999 -0.0014350698 -0.16511855 -0.13156329
-0.19936256 -0.11968609 -0.014273778 -0.14892714 -0.13185126 -0.107215114 -0.08225222 -0.053714383
-0.029513288 -0.034792807 -0.2815138 -0.18521011 -0.20469248 -0.15280254 -0.14149825 -0.18151644
-0.20212774 -0.11160348 -0.00032681876 -0.06448779 -0.13268358 -0.15099365 -0.18955024 -0.12137305
-0.11497935 -0.17869313 -0.097573735 -0.1880432 -0.04085825 -0.21207067 -0.1205768 -0.1261242
-0.22228846 -0.20608425 -0.064739816 -0.16333233 -0.064590424 -0.16426733 -0.10577866 -0.10286414
00000000: d467 8cbd 03e4 12be ed22 06be 3671 f7bd
00000010: 30ce 86bd 5835 46be 24fd 27be ebed bfbd
00000020: 77f9 dcbd 1efa bebd 9e95 01be ff3e e5bd
00000030: 7214 dfbd 13c0 29be 064b 05be d5de 0abe
00000040: f917 a7bd 82b4 4bbd bd24 20be 8245 38be
00000050: 004f afbd f418 bcba d614 29be 87b8 06be
00000060: b325 4cbe fb1d f5bd 90dc 69bc 5b80 18be
00000070: 0404 07be 9993 dbbd da73 a8bd 9d03 5cbd
00000080: dac5 f1bc e782 0ebd 9422 90be b8a7 3dbe
00000090: e89a 51be 4578 1cbe ebe4 10be 72df 39be
000000a0: 93fa 4ebe 5e90 e4bd df58 abb9 2d12 84bd
000000b0: 34de 07be 149e 1abe 7519 42be 6f92 f8bd
000000c0: 4b7a ebbd 55fb 36be bdd4 c7bd 668e 40be
000000d0: fb5a 27bd 0e29 59be f8f0 f6bd b426 01be
000000e0: 969f 63be c007 53be 4f96 84bd 9740 27be
000000f0: fc47 84bd b235 28be 7ba2 d8bd 6faa d2bd

dec1.2.running_mean f4 [64]
0.0133347735 -0.06841208 -0.1314932 -0.05048132 -0.053696778 0.028162805 -0.0248259 -0.08957501
-0.022712817 0.00052368257 -0.016345728 -0.022086926 -0.080705285 -0.013585822 -0.061433267 -0.02314512
-0.14531696 -0.070882484 -0.07947697 -0.038164712 -0.092123784 -0.08302438 -0.009124312 0.046113428
-0.025028367 -0.07368766 -0.050174 -0.030936329 -0.07560756 -0.019090062 -0.06581791 -0.015067895
-0.052204676 0.029080406 -0.0077672275 -0.056187313 -0.1263952 0.008517181 -0.025588945 -0.05836059
-0.05212406 -0.038931154 -0.09981423 -0.12913111 -0.017033229 -0.10263859 0.005496082 -0.074785896
0.026896304 -0.042930264 -0.04220803 -0.0684818 -0.067842096 -0.030019082 -0.03518576 0.004644757
0.005983977 -0.07173051 -0.07682355 -0.12267434 -0.038826097 -0.0058269636 -0.1455679 -0.06597321
00000000: 187a 5a3c a21b 8cbd 27a6 06be 80c5 4ebd
00000010: 27f1 5bbd afb5 e63c b05f cbbc 1a73 b7bd
00000020: 3b10 babc be47 093a 7ae7 85bc a4ef b4bc
00000030: d048 a5bd 1197 5ebc 73a1 7bbd d69a bdbc
00000040: f8cd 14be d62a 91bd d2c4 a2bd 9a52 1cbd
00000050: 65ab bcbd b008 aabd 237e 15bc 6fe1 3c3d
00000060: 4a08 cdbc 8ee9 96bd 4183 4dbd 2f6e fdbc
00000070: 23d8 9abd c362 9cbc 8acb 86bd 55df 76bc
00000080: 92d4 55bd 083a ee3c 3a84 febb ab24 66bd
00000090: be6d 01be a58b 0b3c e89f d1bc 840b 6fbd
000000a0: 0a80 55bd 4676 1fbd 676b ccbd f23a 04be
000000b0: 4589 8bbc 2e34 d2bd 7a18 b43b 5929 99bd
000000c0: a355 dc3c a5d7 2fbd 54e2 2cbd 3040 8cbd
000000d0: ccf0 8abd 94ea f5bc f21e 10bd 0c33 983b
000000e0: 3d15 c43b 72e7 92bd aa55 9dbd af3c fbbd
000000f0: 1d08 1fbd 1df0 bebb c00f 15be f61c 87bd

dec1.2.running_var f4 [64]
0.3776833 0.3984758 0.4132271 0.4397984 0.41183642 0.41448823 0.43420112 0.45008186
0.3856761 0.3440105 0.4650748 0.43776703 0.4493026 0.4078188 0.4369505 0.46742585
0.44285917 0.44024718 0.41294968 0.38275087 0.45606804 0.44666898 0.4062908 0.42038718
0.4380502 0.3736216 0.42547396 0.4093205 0.48825455 0.42711064 0.4045746 0.40569356
0.46837482 0.4106922 0.40309253 0.44535205 0.42891935 0.37190956 0.37243178 0.4321012
0.41732666 0.4271162 0.41035104 0.4453317 0.43114507 0.45546424 0.3912766 0.3952065
0.42353454 0.48156083 0.4264932 0.3968578 0.47705796 0.42050576 0.3881596 0.40613198
0.38634565 0.42335573 0.45611945 0.372907 0.42595357 0.44872132 0.449343 0.42387426
00000000: b55f c13e 0505 cc3e 8192 d33e 422d e13e
00000010: 39dc d23e cd37 d43e 9c4f de3e 2171 e63e
00000020: 5677 c53e 2522 b03e 491e ee3e 0023 e03e
00000030: fe0a e63e a0cd d03e fab7 df3e 7152 ef3e
00000040: 70be e23e 1468 e13e 246e d33e ecf7 c33e
00000050: c081 e93e ccb1 e43e 5905 d03e fd3c d73e
00000060: 1e48 e03e 554b bf3e b9d7 d93e 7592 d13e
00000070: 80fc f93e 3fae da3e 6724 cf3e 11b7 cf3e
00000080: d3ce ef3e 3f46 d23e 2562 ce3e 2f05 e43e
00000090: 519b db3e ee6a be3e 61af be3e 5e3c dd3e
000000a0: d7ab d53e f9ae da3e 8819 d23e 8402 e43e
000000b0: 0cbf dc3e 9c32 e93e 6855 c83e 8258 ca3e
000000c0: 85d9 d83e 248f f63e 515d da3e f230 cb3e
000000d0: f140 f43e 884c d73e dbbc c63e 88f0 cf3e
000000e0: 19cf c53e 15c2 d83e 7d88 e93e abed be3e
000000f0: 9616 da3e cdbe e53e 4910 e63e 0c06 d93e

dec2.0.weight f4 [64, 32, 4]
-0.38970587 0.10120525 -0.1974085 -0.39735657 0.12465954 -0.31671482 -0.19423473 0.2296401
-0.08472556 0.0061603957 0.041186042 -0.111071005 0.3691993 0.08347554 0.05088374 0.32283252
0.16982786 -0.14482962 0.44001383 0.015806925 0.09135272 -0.46849582 0.5208869 -0.32078648
0.37372324 0.017085806 -0.19545242 -0.17724839 -0.7043297 0.083374 -0.17801552 0.29578567
0.12105132 -0.027363421 0.06208427 -0.0058252146 -0.22906281 0.115069255 -0.4699116 -0.15786973
-0.45610073 0.007995546 -0.08689411 0.072196975 0.22812839 -0.12881306 0.25745144 0.024865251
0.13670844 0.005027217 -0.5286502 0.08343155 -0.19098443 0.11553052 0.09462004 0.10208599
-0.112860404 -0.113899164 0.2562445 0.5971918 -0.22207353 0.39020842 -0.41814512 -0.08814861
0.29109827 0.079765834 0.3128506 0.13473676 -1.124273 -0.124833494 0.013385204 0.30229622
-0.12119879 0.16222686 -0.23079851 0.2664072 0.07907742 -0.46058682 -0.12550333 0.42165813
0.09224385 0.16422115 -0.532123 -0.33467516 -0.052514248 -0.27397135 -0.076708004 -0.12287244
0.17102769 0.11809346 0.04142841 -0.08209356 -0.07989222 -0.39643306 -0.05080033 0.10473304
0.32450557 -0.33203545 -0.17345415 -0.20293684 -0.39497402 -0.05382335 -0.32424724 -0.19184045
-0.16889745 -0.17774872 -0.0936937 -0.6670919 0.011406894 0.35514525 0.2642696 0.12993385
0.11263459 0.06668007 -0.42902407 -0.02635333 -0.062353835 -0.5881623 -0.036092795 0.48884875
-0.059728656 0.05906803 -0.051321235 -0.21725628 0.45705402 -0.15776367 -0.11648644 -0.03265536
-0.4530336 -0.085159086 0.106706716 -0.16414586 -0.05442525 -0.43617296 0.018667404 -0.05555893
-0.56237924 -0.2417397 0.012053825 -0.39517438 -0.1737888 0.31050164 0.31230262 0.005020165
-0.26012498 0.11700546 -0.0008569364 0.21518669 -0.15688987 0.09734105 0.1722263 -0.2504272
0.16589572 0.15363094 0.074764274 -0.030030807 0.37749532 0.12987772 0.26742116 0.09487822
0.009601944 0.018112008 0.2612982 0.1748514 -0.2222468 0.20419487 0.082758404 -0.07943263
-0.18510018 -0.6105509 -0.020931618 0.25576022 -0.40525568 -0.09018391 0.44840652 0.11383864
-0.016131148 -0.09161695 0.11565251 0.3565088 0.30818808 0.12124618 0.28638723 0.15907441
0.13735953 0.21044482 0.22457337 -0.27884763 0.2481779 0.16892248 0.048264988 0.40022263
0.085121036 0.07901774 0.16999479 0.23536766 -0.45252725 -0.32863432 -0.5561764 -0.1988304
-0.2034361 0.26818624 0.16410176 0.15095863 -0.48470187 -0.41392654 -0.45258802 -0.29426032
0.35483143 -0.17673251 0.14615527 -0.13021027 -0.3999807 -0.65260494 -0.4073563 -0.2948478
-0.5705239 -0.08801482 -0.5803154 -0.43670768 -0.40412036 -0.5036611 -0.23433864 -0.53522855
0.018629946 -0.46766427 0.26744357 0.23431122 0.105007395 -0.18745229 -0.2775371 -0.34193614
-0.16192119 -0.47286782 -0.3148094 -0.08253176 0.31926313 0.22982888 0.084637344 0.24820141
-0.41638517 -0.15950017 -0.046147652 -0.26225534 0.061651602 -0.09422073 0.2493842 0.43973228
-0.12287668 0.11935823 -0.07540602 -0.08327008 -0.032725602 -0.03309073 -0.0605213 -0.13652307
00000000: 8787 c7be b344 cf3d 7425 4abe 5272 cbbe
00000010: 804d ff3d 7228 a2be 78e5 46be c626 6b3e
00000020: 9884 adbd 25dd c93b b2b2 283d 3279 e3bd
00000030: b107 bd3e 39f5 aa3d 786b 503d 4e4a a53e
00000040: 5be7 2d3e 374e 14be 7e49 e13e 867d 813c
00000050: 2317 bb3d afde efbe d858 053f 203e a4be
00000060: a758 bf3e 88f7 8b3c ae24 48be 9a80 35be
00000070: f44e 34bf fdbf aa3d b349 36be 3871 973e
00000080: c1e9 f73d 4129 e0bc 134c 7e3d 71e1 bebb
00000090: 718f 6abe 6ea9 eb3d 4198 f0be 9aa8 21be
000000a0: 0986 e9be c0ff 023c 8af5 b1bd 02dc 933d
000000b0: 7d9a 693e 92e7 03be add0 833e 36b2 cb3c
000000c0: 4cfd 0b3e 5abb a43b 9f55 07bf 29de aa3d
000000d0: 6c91 43be 449b ec3d 27c8 c13d 7612 d13d
000000e0: 5b23 e7bd f743 e9bd 7b32 833e 90e1 183f
000000f0: 3e67 63be 66c9 c73e 1e17 d6be 4287 b4bd
00000100: d50a 953e 455c a33d f42d a03e 6ff8 093e
00000110: 2de8 8fbf b4a8 ffbd 9d4d 5b3c 92c6 9a3e
00000120: 1237 f8bd cc1e 263e 7256 6cbe 8666 883e
00000130: 58f3 a13d 09d2 ebbe f283 00be 93e3 d73e
00000140: 58ea bc3d 9729 283e 3739 08bf 8b5a abbe
00000150: 2e19 57bd f945 8cbe 1619 9dbd 8ca4 fbbd
00000160: e221 2f3e fcda f13d d6b0 293d ab20 a8bd
00000170: 889e a3bd 46f9 cabe 0214 50bd 477e d63d
00000180: 9825 a63e 8d00 aabe f79d 31be adce 4fbe
00000190: 093a cabe e075 5cbd bc03 a6be d371 44be
000001a0: 74f3 2cbe c303 36be 7ce2 bfbd 89c6 2abf
000001b0: fbe3 3a3c 99d5 b53e 584e 873e 610d 053e
000001c0: f7ac e63d 8f8f 883d 0ba9 dbbe f0e2 d7bc
000001d0: bc66 7fbd ce91 16bf 0ad6 13bd 624a fa3e
000001e0: 09a6 74bd 52f1 713d 3736 52bd 6e78 5ebe
000001f0: fc02 ea3e cd8c 21be 7190 eebd a0c1 05bd
00000200: 05f4 e7be e367 aebd 0d89 da3d da15 28be
00000210: 03ed 5ebd 1052 dfbe 62ec 983c c391 63bd
00000220: 16f8 0fbf 9d8a 77be 687d 453c 4c54 cabe
00000230: b1f5 31be 12fa 9e3e 21e6 9f3e 3280 a43b
00000240: 1a2f 85be 8fa0 ef3d 07a4 60ba e659 5c3e
00000250: bda7 20be bf5a c73d 175c 303e fe37 80be
00000260: 91e0 293e 6e51 1d3e 031e 993d 2b03 f6bc
00000270: 1147 c13e aafe 043e 6deb 883e 834f c23d
00000280: 7951 1d3c a25f 943c e1c8 853e 3f0c 333e
00000290: aa94 63be 7618 513e 3d7d a93d 93ad a2bd
000002a0: e78a 3dbe 104d 1cbf c978 abbc 01f3 823e
000002b0: ac7d cfbe 58b2 b8bd 8a95 e53e 3c24 e93d
000002c0: 7825 84bc aba1 bbbd 39db ec3d 5288 b63e
000002d0: d4ca 9d3e eb4f f83d 59a1 923e 67e4 223e
000002e0: faa7 0c3e d97e 573e 90f6 653e 1ec5 8ebe
000002f0: 5922 7e3e 04fa 2c3e 82b1 453d fbe9 cc3e
00000300: f053 ae3d 0ed4 a13d 1d13 2e3e 3804 713e
00000310: a7b1 e7be c242 a8be 9461 0ebf 329a 4bbe
00000320: 8e51 50be b54f 893e 4b0a 283e e694 1a3e
00000330: d82a f8be 2eee d3be 9eb9 e7be 4aa9 96be
00000340: 77ac b53e 5ef9 34be baa9 153e d755 05be
00000350: 45ca ccbe 1e11 27bf 0191 d0be 4af6 96be
00000360: db0d 12bf 1d41 b4bd 8d8f 14bf 2698 dfbe
00000370: dde8 cebe efef 00bf 78f6 6fbe bd04 09bf
00000380: d49d 983c b171 efbe 5dee 883e 48ef 6f3e
00000390: 1e0e d73d 7ef3 3fbe 5819 8ebe 4112 afbe
000003a0: abce 25be bb1b f2be b32e a1be 6906 a9bd
000003b0: 7576 a33e 4358 6b3e 5856 ad3d 8328 7e3e
000003c0: 7030 d5be 0354 23be 5205 3dbd 5546 86be
000003d0: 6486 7c3d ccf6 c0bd 925e 7f3e 9724 e13e
000003e0: c5a6 fbbd 1672 f43d 796e 9abd 8189 aabd
000003f0: 480b 06bd 258a 07bd 2fe5 77bd b4cc 0bbe

dec2.0.bias f4 [32]
0.044325687 0.021285716 -0.03846887 0.006409233 0.026981642 0.04319776 0.082682036 -0.032678705
-0.01865766 0.08165069 0.045262117 -0.074167974 -0.074925214 -0.032198574 0.06938697 -0.04084797
-0.059246458 0.037574504 -0.026486933 0.045677938 -0.008079309 0.06350266 -0.012167975 -0.03410117
-0.021888975 0.02986157 -0.060454957 0.070771396 0.026121328 -0.061412998 -0.057918403 -0.07821411
00000000: da8e 353d 625f ae3c 8991 1dbd 8b04 d23b
00000010: 9b08 dd3c 22f0 303d 3355 a93d 1bda 05bd
00000020: f3d7 98bc 7a38 a73d c564 393d 61e5 97bd
00000030: 6472 99bd a7e2 03bd c11a 8e3d 3350 27bd
00000040: 6aac 72bd b9e7 193d 20fb d8bc ca18 3b3d
00000050: 145f 04bc af0d 823d 305c 47bc abad 0bbd
00000060: 8250 b3bc 40a0 f43c 9e9f 77bd 98f0 903d
00000070: 65fc d53c 328c 7bbd d93b 6dbd b82e a0bd

dec2.1.weight f4 [32]
1.0846816 0.8537229 0.6308347 1.2395239 1.2138867 0.614122 0.94880927 0.5719879
0.99814415 1.0688417 1.1059598 0.89856434 0.5581715 1.1079098 0.835588 0.7418255
0.9883251 1.0599387 0.4688175 1.0817229 0.56309175 1.0322258 1.0831782 0.9049369
0.34567222 1.0459949 1.1089058 1.2860212 0.74569225 1.0633458 0.6952021 0.6070811
00000000: d9d6 8a3f 958d 5a3f 627e 213f b8a8 9e3f
00000010: a460 9b3f 1937 1d3f 2ae5 723f cd6d 123f
00000020: 6086 7f3f cecf 883f 1790 8d3f 5008 663f
00000030: 54e4 0e3f fdcf 8d3f 18e9 553f 47e8 3d3f
00000040: e002 7d3f 12ac 873f d908 f03e e575 8a3f
00000050: c826 103f fa1f 843f 95a5 8a3f f2a9 673f
00000060: f3fb b03e 29e3 853f a0f0 8d3f 589c a43f
00000070: b0e5 3e3f b71b 883f c4f8 313f ab69 1b3f

dec2.1.bias f4 [32]
-0.16190675 -0.28656393 -0.093672305 -0.5716205 -0.53401124 -0.01577998 -0.31233132 -0.115587726
-0.42570782 -0.3404916 -0.19769156 -0.23305172 -0.058484077 -0.4625167 0.02020844 -0.20737398
-0.2713199 -0.34157073 -0.01551414 -0.2881843 0.06196598 -0.27496156 -0.36345464 -0.17416961
-0.0051714852 -0.27811995 -0.27784672 -0.6563455 -0.22677274 -0.18701449 -0.029922463 -0.07385921
00000000: e2ca 25be 82b8 92be 44d7 bfbd b955 12bf
00000010: f6b4 08bf 0445 81bc e4e9 9fbe 42b9 ecbd
00000020: 60f6 d9be ea54 aebe a86f 4abe 1ca5 6ebe
00000030: 008d 6fbd fdce ecbe 2c8c a53c d859 54be
00000040: 71ea 8abe 5ce2 aebe 052f 7ebc e48c 93be
00000050: 0ad0 7d3d c3c7 8cbe ba16 babe 8559 32be
00000060: 9075 a9bb bd65 8ebe ed41 8ebe 4206 28bf
00000070: 1d37 68be ba80 3fbe f41f f5bc 7f43 97bd

dec2.1.running_mean f4 [32]
-1.527099 -2.0394166 -1.1681384 -1.6395836 -1.663437 -0.46380585 -1.2304087 -0.4570598
-1.9340067 -2.219491 -1.6406494 -1.4016993 -0.6905945 -1.955569 0.29337695 -1.5540304
-1.3869622 -1.048394 -0.0322256 -1.4715071 -0.07961294 -1.5881913 -1.9055836 -1.6831864
0.122915916 -1.6933801 -1.8919609 -1.584792 -1.6455891 -1.4675455 -0.56135905 -0.7934943
00000000: fb77 c3bf cd85 02c0 8f85 95bf e0dd d1bf
00000010: 81eb d4bf f677 edbe 087e 9dbf be03 eabe
00000020: 888d f7bf 240c 0ec0 cd00 d2bf e26a b3bf
00000030: cdca 30bf 1650 fabf 8135 963e 78ea c6bf
00000040: fa87 b1bf c631 86bf fefe 03bd 585a bcbf
00000050: 1c0c a3bd da49 cbbf 2aea f3bf a772 d7bf
00000060: 57bb fb3d aec0 d8bf c62b f2bf 77da cabf
00000070: aaa2 d2bf 88d8 bbbf 3ab5 0fbf 7122 4bbf

dec2.1.running_var f4 [32]
1.6196172 2.1411202 2.2855654 1.3031609 1.5369105 3.349416 1.6434169 6.2263675
1.9224478 14.699392 1.9467715 2.7735674 1.7164326 1.5282589 4.7463017 1.7426947
1.5170935 4.0495915 2.4710627 1.6192831 4.361955 1.5706718 1.9095088 1.3718415
1.7196018 1.9664598 1.4773349 0.9967957 2.068 15.147436 2.053824 2.4860294
00000000: 9e4f cf3f 1d08 0940 b446 1240 facd a63f
00000010: 7cb9 c43f d55c 5640 7c5b d23f 673e c740
00000020: c512 f63f b630 6b41 cf2f f93f 2182 3140
00000030: 10b4 db3f fd9d c33f b4e1 9740 9f10 df3f
00000040: 1f30 c23f 4196 8140 e425 1e40 ab44 cf3f
00000050: 2395 8b40 c60b c93f c96a f43f 8198 af3f
00000060: e91b dc3f f4b4 fb3f 4f19 bd3f 012e 7f3f
00000070: 1d5a 0440 e65b 7241 da71 0340 1b1b 1f40

dec3.0.weight f4 [32, 1, 4]
0.26405075 0.27510357 0.29789585 0.27438956 -0.23754813 -0.28834 -0.3921924 -0.32563025
0.1224612 0.2138046 -0.2829774 -0.12504454 -0.4300963 -0.5059288 -0.4466773 -0.39420083
-0.46317723 -0.5337177 -0.64892095 -0.5821714 -0.17441493 0.10515034 0.20783474 0.31345662
-0.3339161 -0.3567953 -0.39887086 -0.3594729 0.1864381 -0.31581572 0.26386452 0.058653045
-0.43121657 -0.47495562 -0.45618054 -0.38994005 -0.025127044 -0.37030336 0.8356702 -0.39445826
0.3505683 0.37911123 0.33845684 0.29062065 -0.075490676 -0.1514261 -0.35457388 -0.30287632
0.13492702 0.20129439 -0.27872226 -0.20785232 -0.4588215 -0.44496465 -0.41252023 -0.35536498
0.29931092 0.29983273 -0.1903183 -0.32210916 -0.47140917 -0.48536828 -0.22267252 -0.12362048
-0.32735944 -0.4185534 -0.38060397 -0.37056553 0.24920306 0.34475315 0.46459043 0.44433817
-0.12512451 0.3012839 0.14941522 0.18683767 0.38839528 0.437169 0.4616268 0.42943525
0.12302977 -0.31865326 -0.1078601 0.13585718 0.38859862 0.43002877 0.4809802 0.41396704
0.36195907 0.42121422 0.35904098 0.37613472 0.37811154 0.39138684 0.25452372 0.224484
0.3600041 0.07363383 -0.40056527 -0.2852966 0.28609106 0.3373593 0.37506294 0.29652333
0.3374318 0.39679283 0.41288564 0.3609455 -0.65607446 -0.7527606 -0.7453959 -0.67418057
0.27273703 0.3871332 0.49041355 0.4236204 -0.5976416 0.54647017 0.008168147 -0.045424122
0.14511938 0.15696499 -0.21005069 -0.26648176 -0.28101826 -0.13159984 0.29087862 0.28033096
00000000: a931 873e 60da 8c3e ce85 983e ca7c 8c3e
00000010: d13f 73be 4da1 93be 71cd c8be 02b9 a6be
00000020: f0cc fa3d 98ef 5a3e 6ae2 90be ad0b 00be
00000030: 9535 dcbe 8d84 01bf e3b2 e4be b1d4 c9be
00000040: 9125 edbe b9a1 08bf af1f 26bf 2f09 15bf
00000050: d499 32be 1059 d73d a1d2 543e 637d a03e
00000060: 0df7 aabe e0ad b6be cd38 ccbe d50c b8be
00000070: a1e9 3e3e 99b2 a1be 4019 873e 2d3e 703d
00000080: 6bc8 dcbe 622d f3be 7f90 e9be 39a6 c7be
00000090: 3bd7 cdbc 6798 bdbe 7bee 553f 6ff6 c9be
000000a0: b07d b33e de1a c23e 374a ad3e 3bcc 943e
000000b0: db9a 9abd 720f 1bbe b58a b5be 9b12 9bbe
000000c0: 4f2a 0a3e 1e20 4e3e afb4 8ebe 3dd7 54be
000000d0: a7ea eabe 68d2 e3be da35 d3be 66f2 b5be
000000e0: 483f 993e ad83 993e cde2 42be 7eeb a4be
000000f0: 8b5c f1be 3182 f8be 4404 64be bc2c fdbd
00000100: a89b a7be a24c d6be 86de c2be c4ba bdbe
00000110: 162f 7f3e 7c83 b03e ccde ed3e 4b80 e33e
00000120: a420 00be e241 9a3e 4e00 193e 6052 3f3e
00000130: bfdb c63e 9dd4 df3e 595a ec3e f0de db3e
00000140: 08f7 fb3d 8526 a3be c2e5 dcbd 251e 0b3e
00000150: 66f6 c63e bb2c dc3e 0943 f63e 7df3 d33e
00000160: b352 b93e 64a9 d73e 38d4 b73e bb94 c03e
00000170: d697 c13e db63 c83e ef50 823e 22df 653e
00000180: 7552 b83e 55cd 963d e416 cdbe 6512 92be
00000190: 877a 923e 5cba ac3e 4008 c03e e8d1 973e
000001a0: dcc3 ac3e 6e28 cb3e bf65 d33e d9cd b83e
000001b0: 7ff4 27bf ebb4 40bf 44d2 3ebf 1997 2cbf
000001c0: 30a4 8b3e 5336 c63e 7c17 fb3e c6e4 d83e
000001d0: 0aff 18bf 78e5 0b3f b1d3 053c a50e 3abd
000001e0: 2d9a 143e 6ebb 203e 8717 57be 4c70 88be
000001f0: a0e1 8fbe 1cc2 06be 0bee 943e 8a87 8f3e
