tests/models/vae_encoder.onnx (onnx, 185783 bytes, 15 tensors)

encoder.enc1.0.weight f4 [32, 1, 4]
00000000: d655 02bf 776a 62be de45 073e fda3 e93e
00000010: 11ca 243e 2698 073f 4d4e ba3c a49e 663e
00000020: 26ef cf3e 6bbc e43d 5643 debe 4d75 d33e
00000030: 31bf 953e 5982 79be c9e3 6dbe 632b dabe
00000040: 0824 ac3d 275b e7be 2518 283e 8632 e43d
00000050: a2b6 e7be a7e9 f93d 8683 67bd 823c 583e
00000060: bb32 cc3e 0754 d8be f195 933e 8b82 9d3e
00000070: 0d01 a43e cd6b a4be e726 aabd e0e3 2abe
00000080: ad9b a3bd 56b7 9e3e ee4a 0b3e 23dd e43e
00000090: 7f25 c1bd 227a 713e 8605 693e be1a bfbe
000000a0: e4e3 cfbe 40ea 04be 4469 cf3e 0921 03bf
000000b0: 424a d3be 9c19 963e 6ace 8a3e 8f50 f13e
000000c0: c0fb b9be b3bb b2be 1b40 8c3e bb9f e83e
000000d0: 1715 cb3e 0367 f53d cae7 acbd dcda c13e
000000e0: 8d32 85be b415 1abe 6fb9 b53e 8ee8 cebe
000000f0: 61e4 9cbe bc6f ab3e cbd5 f33d b12b 333e
00000100: 7e15 4ebe 26df 1a3b 994b f23e f019 93be
00000110: 1502 a23b c109 5a3e 2ace f2be e497 943e
00000120: 9ff2 21be 4728 07bd 4bfb b5bd f800 dabe
00000130: 0b84 a9be 8533 eb3e 4898 923e 2021 d3be
00000140: 4b50 7ebe 6dd4 143f fb8c 553e d08f ad3d
00000150: ec7d 8ebe 2e61 36be 754a f1bd 205d 04be
00000160: 33e5 a5be 984a 823d 4034 c93c 6909 b9bd
00000170: e143 213e bf31 f5bd b5ea ed3d 9cc8 223e
00000180: e200 29be ddbe e9be 58da 9e3e bffd 403e
00000190: e9f8 72be cee2 f83e bc39 7fbe 5178 bf3e
000001a0: 0cca aa3e 8aa5 adbe 741e ca3e d4e2 c9be
000001b0: 3636 82be 4fd9 87bd be78 9bbe 38b6 043f
000001c0: d630 c1bd a343 593e a748 e2be 2fe0 963e
000001d0: d4d4 1ebe 8486 c3be de92 8a3d 1c6f 7a3e
000001e0: 4dd1 db3e 4f7a 9fbe 6d26 82be 25f1 ac3d
000001f0: 3d2f 2b3e d9e0 413e 1651 8e3e fb3f bdbd
-0.50912225 -0.22110926 0.13210246 0.45632926 0.16092707 0.52966535 0.022742415 0.22521454
0.40612143 0.111687504 -0.43410748 0.4130043 0.2924743 -0.2436613 -0.23231424 -0.42611226
0.0840531 -0.4518673 0.1641546 0.11142449 -0.45256525 0.12202769 -0.056521915 0.21116832
0.39882454 -0.42251608 0.28825334 0.3076366 0.32032052 -0.32113495 -0.08308201 -0.1668849
-0.07988677 0.3099925 0.13602802 0.44699964 -0.0943098 0.23581746 0.22756013 -0.3732509
-0.40603554 -0.12979984 0.4051 -0.5122228 -0.41267592 0.29316413 0.27110606 0.47131774
-0.36324883 -0.34908828 0.2739266 0.45434365 0.39664528 0.119825386 -0.08442648 0.3786229
-0.2601513 -0.15047342 0.35493037 -0.404118 -0.3064299 0.33483684 0.11906012 0.17497136
-0.20125386 0.0023631542 0.473233 -0.28730726 0.004944096 0.21292783 -0.47422916 0.29022133
-0.15815209 -0.032997396 -0.08885821 -0.42578864 -0.33108553 0.45937744 0.28631806 -0.4123621
-0.24835317 0.58136636 0.20854561 0.08474696 -0.27830446 -0.17810509 -0.1178178 -0.1292615
-0.32401428 0.06361884 0.024561048 -0.09034998 0.1574855 -0.11972379 0.116170324 0.15896839
-0.16504243 -0.4565343 0.31025958 0.18846796 -0.23727764 0.48610538 -0.24924368 0.37396482
0.33357275 -0.3391536 0.3947636 -0.3943087 -0.25431985 -0.06633245 -0.30365556 0.51840544
-0.09433143 0.21217208 -0.44196054 0.29467914 -0.15510875 -0.38188565 0.06766294 0.24456447
0.4293312 -0.31148002 -0.25419942 0.08444432 0.16717239 0.18933429 0.2779624 -0.09240719

encoder.enc1.0.bias f4 [32]
00000000: 6255 8e3e 8d93 bc3e a072 05be ff4a b63e
00000010: 5868 783e 76b0 e23e 2373 91be e5d5 7cbe
00000020: ac88 14be b7b9 e03c 368d 993e 4977 92be
00000030: f009 813e 9d48 37be 47f5 9a3e 276d bebc
00000040: 362c e0be 83ca 8cbe 1861 b9be 488c 7e3e
00000050: f8b6 abbe d4a0 2bbd f244 db3d 033d 8cbe
00000060: 57ad 133e 85b5 f9be 6916 b7be 971a e7be
00000070: 8f69 19be 7d61 3bbe 3e4a 8d3d 6865 bebd
0.27799517 0.36831322 -0.13032007 0.35604092 0.24258554 0.44275254 -0.28408155 -0.2469097
-0.14505261 0.027432306 0.29990548 -0.28606632 0.25202894 -0.17898794 0.30265257 -0.023245407
-0.4378373 -0.27498254 -0.3620689 0.248582 -0.33538032 -0.041901425 0.1070651 -0.27390298
0.14421593 -0.487713 -0.35759285 -0.45137474 -0.14981674 -0.18298908 0.06898926 -0.092966855

encoder.enc1.1.weight f4 [32]
00000000: 69f9 7a3f 5a4d 853f 6c6c 7f3f 1dd9 703f
00000010: 731e 7f3f 020a 6c3f a48b 7f3f da4b 783f
00000020: 1379 833f 328c 853f ab9b 6d3f 92c5 813f
00000030: 3338 863f 2ab3 803f 46f8 7d3f 4c63 803f
00000040: 675d 7b3f f7dc 833f 15b1 713f 578b 8c3f
00000050: 2a3a 773f bc17 703f f484 6c3f c77c 803f
00000060: 7607 6c3f 176e 773f 3b65 8d3f e2fe 723f
00000070: dbfc 773f 91fa 6b3f c7e7 7f3f 34a6 813f
0.9803682 1.0414231 0.99774814 0.9408129 0.99655837 0.9220277 0.9982245 0.9699074
1.0271324 1.0433409 0.92815655 1.0138419 1.0485901 1.0054677 0.9920696 1.0030303
0.98189396 1.0301808 0.9441083 1.0980023 0.96573126 0.93786216 0.9239037 1.0038079
0.92198884 0.9665236 1.1046518 0.9492017 0.968702 0.9217921 0.9996304 1.0128846

encoder.enc1.1.bias f4 [32]
00000000: 8cd5 e73d dc5d e13d 66d8 9c3e 124f 73b8
00000010: 2da4 d93d f3af 993d e6f1 4b3e 4830 743d
00000020: ccab 65be 2208 303e a61c b4bd 8960 813d
00000030: 31a3 ac3e 953a 0bbd 5e2d 22bd 4cd8 0abb
00000040: 833f 363d c833 803d a8c8 853d 70f9 b83d
00000050: 62fe 273d d61d a23c 472f 053c d982 103c
00000060: 4836 6fbe 1acc 7bbe 9a61 353e 94bd 893d
00000070: ce4c 003e eea8 f43c 6305 7bbd 58bb b63c
0.11320028 0.110042304 0.3063385 -5.8009355e-05 0.10627017 0.07504263 0.19916496 0.059616357
-0.22428817 0.17190602 -0.08794527 0.06317241 0.33718255 -0.033991415 -0.039594047 -0.0021186052
0.044494163 0.062598765 0.06532413 0.090319514 0.041014083 0.019789618 0.008128948 0.008820259
-0.2336055 -0.24589577 0.17713013 0.06725612 0.12529299 0.029865708 -0.061284434 0.02230613

encoder.enc1.1.running_mean f4 [32]
00000000: a253 423e c396 743f 9c56 373e 683f d4bc
00000010: d1f2 3c3e c2ad aa3e af76 953d f51b cfbe
00000020: 4042 ba3e 620f d23c 689d cebd a5e2 d53d
00000030: d543 863e 6889 a73e 535b 833c 2783 373e
00000040: fecd e3be 633f 82be c899 4dbf cfba 803e
00000050: b632 6b3d b6a0 f6be 743c c5bd 93c0 a0bd
00000060: fa5a 8a3d 5df6 81be 9bc8 b8be b79a 04bf
00000070: 06a4 2cbe c6c3 a5be d567 103d e441 7c3e
0.18977216 0.95542544 0.17904133 -0.02590914 0.18452002 0.33335692 0.07298028 -0.40451017
0.3637867 0.0256421 -0.100886166 0.1044362 0.26223627 0.3272202 0.016034758 0.17921124
-0.44493097 -0.25438985 -0.80312777 0.25142524 0.05742141 -0.48169488 -0.09630671 -0.078492306
0.06755634 -0.25383273 -0.3609055 -0.51798576 -0.16859445 -0.32375926 0.035255272 0.2463451

encoder.enc1.1.running_var f4 [32]
00000000: 3699 533b 3028 913d 2f7c a63c b25a f83c
00000010: a551 5c3a d307 463b 5ee3 da3c 2ef6 aa3b
00000020: 695e 5a3d adc5 e539 0e60 0a3d 1695 023d
00000030: ad5e bb3a 10b4 593d bfaf 8d3c 2d5a 0b3c
00000040: e023 9f39 c4c2 8f39 48fb 243d 1dcb 313a
00000050: 1576 013d 2194 233d 8add 0e3c 1a23 023c
00000060: 3625 e43a 7a46 3a3c 3882 f039 bfe2 f83a
00000070: 31ff 8f39 b956 963b 8b6d 0a3a 254d c33c
0.0032287366 0.07087743 0.020322887 0.030316684 0.00084045 0.0030217066 0.026719745 0.005217335
0.053312693 0.00043825564 0.03378301 0.03188046 0.0014295183 0.053150237 0.017295716 0.008505386
0.00030353572 0.00027420197 0.040278703 0.00067822804 0.031606752 0.03993619 0.008719811 0.007942939
0.0017406109 0.011369342 0.00045873388 0.0018988474 0.00027465218 0.004587975 0.00052806054 0.023840496

encoder.enc2.0.weight f4 [64, 32, 4]
00000000: 0649 143e 12e5 db3d e6eb 7a3d d072 a3bc
00000010: 9f53 64bd 5cb8 4a3d fc77 d0bc 4850 6a3d
00000020: 3c56 a93d 1ff3 493d b1d8 be3d 5188 bc3d
00000030: 863c 6f3c b0cc 86bd a708 7b3d dc80 a7bc
00000040: 6523 ea3c b4c5 d23d 8360 ff3d dcf6 4f3d
00000050: e90e 2c3d 644e 76bd 9bb3 7b3a 5002 ca3d
00000060: fad8 353d 7c40 e63c 2c9b b6bb a759 acbc
00000070: 85c5 653d a0f3 943b 9eae 3f3d 5b46 e23b
00000080: a334 933d d4b7 883d 62f9 213d 5c5e a93d
00000090: 21db 3c3c 668c 7e3d 7f29 003d f07c 38bc
000000a0: c98f 97bd 0412 9f3b af6e aabc 41c0 5cbc
000000b0: 98ca 323c 4c5d 003d 05e2 ae3d b50b 4a3d
000000c0: 3101 74bd ef93 97bd f87a 97bd bfa6 92bd
000000d0: 2f33 d93d e388 873d 28a0 c13d c894 613c
000000e0: 1329 a63c 37f1 933c b8a1 d4bd 48b1 8f3c
000000f0: 7dfc b93c 8d36 b3bc 5b93 3dbd 6172 d13d
00000100: 5fec c13d 8c93 153d 6e8f a93d 5877 e0bb
00000110: c403 3f3c 3c7e 883d 85c1 c13c d121 ac3b
00000120: 3200 98bd b111 8e3c 42dd 8fbd 6f34 9c3c
00000130: 148b fe3c b267 82bd 4e90 77bd 6681 e03c
00000140: 4572 65bb 5b0c 8b3c dcd1 da3d 5651 9fbc
00000150: 3bdf 77bd d4ec 6fbd 98ff 0abd 568d 00bd
00000160: 3024 22bd 36a0 f03c 216a 923b 53b0 98bc
00000170: c070 25bd 9dac 473a 45eb 95bc be25 48bc
00000180: 4add 0dbd efd3 063d 6e58 49bd 4c47 58bd
00000190: ccad 1ebd a553 953d 0537 c4bc 1dde b8bb
000001a0: 71a8 2e3d 7ce7 ef3c 8b24 a83c ae3d 9dbd
000001b0: b6c6 9bbc ae66 87bc 8430 bf3d aec0 df3c
000001c0: 8be0 0bbd 3a32 193d dcb0 29bd 3c06 023b
000001d0: 33da 963b afb2 9e3d 0b4c 0c3d 309c 9dbb
000001e0: a942 2c3d 9470 d5bc 5f78 aa3d b707 643d
000001f0: 5f70 603d 429f 69bc 0b52 be3d 2da0 ed3a
00000200: 8cab 893c c05a 613d 1bd2 8e3d d378 a33d
00000210: 0ff6 af3c fa54 23bd 0232 94bb 7793 2c3d
00000220: 1a5a e8bd 1f9f 0dbd 74ec ffbd b3ad 10bd
00000230: 562d d43c 936e 7dbd ce4e 17bd fe2c 083d
00000240: 909f 613d 511c aabc c439 a63c 7521 3fbd
00000250: 31a5 d33c 0711 40bc 22a8 14bd 3b93 d3bd
00000260: 4d17 d03c d186 81bd 5210 bcbd ef32 9cbc
00000270: 3fc2 5ebd 2abb 9bbd 3c2b 92bd ed39 2cbd
00000280: 0564 d1bc cc10 eebc 3d8e fabb 969d b6bd
00000290: b68a cabd 71a9 2ebd 85a0 8f3d d52a 88b8
000002a0: bcc3 90bd c1b2 5ebc 2cf1 233c 1e15 e93c
000002b0: bfd1 67bd d373 1ebd 24e0 bcbd 76a4 81bd
000002c0: 9139 e83d 239d 3b3c f37e 8f3d 53ea 0ebc
000002d0: 2594 123c a743 85bd 3085 0bba dd17 8fbd
000002e0: 7a9d e8bc 28cc eebd abca 0bbd 2f29 833d
000002f0: 8277 883d 0763 3abd e741 cebc 409c 9dbc
00000300: a18e 82bd 2c7b 173d fb82 7f3d 6d79 84bc
00000310: a782 37bd 3596 3fbd abf4 86bc d6ad 81bb
00000320: 60fb 3e3c a4a4 b3bd c9fa 2b3d fa8c d4bc
00000330: 8ec3 5ebd 88b7 8ebd 2763 103e 510f e1bc
00000340: 9db1 743a dfcc 12bd 0e05 63bd abd6 bebd
00000350: 04ed 98bd ec69 6d3c d77d 823c b100 893d
00000360: f412 7fbd 1c91 473c af66 e1bd d1de 063d
00000370: 143e 783d ba46 6c3d 6473 f23c 4e50 d23c
00000380: 6b1c b13c 9a7a 7e3c bda9 96bd ad81 d03b
00000390: c3e3 f4bb c3e6 373b b0c1 cdbd 749e 0dbd
000003a0: a0f6 d1bd 1f05 98bd a8ea 963c 2e0e 14be
000003b0: e8f1 d43c 63c3 2f3d ed11 5a3d f17a d33c
000003c0: acb1 68bd e0e8 ddbd 6756 9b3c db75 0b3d
000003d0: 6cb4 61bd 9ba9 633c 4850 dc3c dc50 72bc
000003e0: f528 8bbd f9b9 033d 9f1c 2a3b a31c 8a3d
000003f0: 242d 72bd 2ffa 533d 6484 3abd e88a 6a3d
0.14480981 0.10737051 0.061260127 -0.019952208 -0.05574381 0.049492225 -0.025447838 0.05720547
0.08268401 0.049304124 0.09318674 0.09205688 0.014601832 -0.0658201 0.06128755 -0.020447187
0.02858133 0.10291615 0.1246958 0.050772533 0.042006407 -0.060133353 0.00096016534 0.09863722
0.044396378 0.02810692 -0.005572697 -0.021038843 0.056096572 0.004545644 0.046797387 0.0069053597
0.07187774 0.066756874 0.03954447 0.08269951 0.011526854 0.062145613 0.031289574 -0.011260256
-0.07400472 0.0048544426 -0.020804731 -0.013473571 0.01091256 0.031338975 0.085392036 0.04932757
-0.05957145 -0.07401263 -0.07396501 -0.071607105 0.106054656 0.06617906 0.094543755 0.013768382
0.020283258 0.018059356 -0.10382408 0.017540589 0.022703404 -0.021876598 -0.046283107 0.10226894
0.09468912 0.036517665 0.0827931 -0.0068501644 0.011658613 0.06664702 0.023651848 0.0052530547
-0.07421912 0.01734242 -0.070246235 0.019067971 0.031072177 -0.063674346 -0.060440354 0.027405452
-0.0035010737 0.016973665 0.10684559 -0.019447964 -0.060515624 -0.058575466 -0.03393516 -0.03138479
-0.039585292 0.02937327 0.004468218 -0.018638765 -0.04039073 0.0007616969 -0.018300662 -0.01221603
-0.034634866 0.03291696 -0.0491566 -0.05280237 -0.038739964 0.072913446 -0.023952017 -0.0056417123
0.042641107 0.029285185 0.020525238 -0.0767778 -0.019015651 -0.016528454 0.093354255 0.027313557
-0.034149688 0.037401415 -0.041428432 0.0019840142 0.004603648 0.07748925 0.034252208 -0.0048098788
0.04205576 -0.026054658 0.0832374 0.05567142 0.054794665 -0.014259161 0.09292992 0.0018129401
0.016805433 0.055018187 0.06973668 0.0798203 0.021479635 -0.03987596 -0.004522563 0.04213282
-0.113453105 -0.034575578 -0.12496272 -0.035321902 0.025900524 -0.06187303 -0.03694039 0.033246033
0.05508381 -0.020765455 0.020291217 -0.046662766 0.025835605 -0.01172281 -0.036293156 -0.10330816
0.025401736 -0.06324542 -0.091828 -0.019067256 -0.054384466 -0.07604058 -0.071371526 -0.04204743
-0.025560388 -0.029060744 -0.0076463507 -0.08916776 -0.09889738 -0.04264206 0.070130385 -6.4929634e-05
-0.07068583 -0.013592423 0.01000623 0.028452452 -0.056596514 -0.038684677 -0.09222439 -0.063301966
0.11339105 0.0114510385 0.070066355 -0.008722859 0.008946453 -0.06507044 -0.00053222757 -0.069869734
-0.028395403 -0.116600335 -0.034128826 0.064043395 0.06663419 -0.045504596 -0.025177909 -0.019239545
-0.063748606 0.0369827 0.062380772 -0.016171182 -0.044802334 -0.046774108 -0.016474089 -0.0039574904
0.011656612 -0.08771637 0.041987214 -0.02594613 -0.054385714 -0.069685996 0.14100324 -0.027473124
0.0009334328 -0.03583991 -0.055424742 -0.093182884 -0.07467082 0.014490586 0.015929146 0.06689585
-0.062273934 0.012180593 -0.110059135 0.032927338 0.060606077 0.057684638 0.029596038 0.025673058
0.021619996 0.01553216 -0.07356594 0.006363115 -0.0074734404 0.0028061129 -0.100467086 -0.03457494
-0.10252118 -0.07422852 0.01842244 -0.14458534 0.025994256 0.042910945 0.05323975 0.025815459
-0.056810066 -0.10835433 0.018962098 0.034047943 -0.055103704 0.013895418 0.02689375 -0.014789786
-0.06794921 0.03215978 0.0025957 0.06743743 -0.05912508 0.051752266 -0.045536414 0.057261378

encoder.enc2.0.bias f4 [64]
00000000: 37e2 783c b44e 7abd a34d 2f3d 107f 153c
00000010: 4d06 b2bd 53c5 963d 2f14 663d 4f39 393a
00000020: 49ed 8cbc 0cd3 a23d acd2 b33d a2b1 6e3c
00000030: 4612 a83d 279f 183d 68d2 2c3d 7166 b3bb
00000040: c915 d0bb 9bc0 663d 7eb5 1ebd 7fc5 80bd
00000050: 1e12 623d f741 adbc 0a64 7f3d 4750 70bc
00000060: af82 5cbd 9531 baba eb05 26bc 7e7a a73c
00000070: 5dc0 8bbd 522f 99bd 8e94 953b 1884 a33d
00000080: d1e3 64bd 50c4 35bd 5c2d 083c e080 873d
00000090: 3cb5 8a3d a354 97bc 109a 98bb 7dc7 8ebd
000000a0: 6992 b03d c17a 5b3d 804f b93c 45ca afbd
000000b0: 45a4 4c3d 542a 4bbd 9d59 6c3b 0ae3 2d3d
000000c0: 908c 63bb 97be 30bd 591e 753d 36dc 743d
000000d0: 0af3 0d3c cfdb 62bd b3a7 3bbd 1946 a2bd
000000e0: 6586 41bd a0c0 a1bd 7570 fcbb e849 80bd
000000f0: c2f6 4d3d 7b60 92bd 7c4a 79bd f8f5 5ebd
0.015190653 -0.061110213 0.04279865 0.009124532 -0.08692608 0.07361855 0.056171592 0.00070657296
-0.01720299 0.0795041 0.08780417 0.014568718 0.082066104 0.037261155 0.042192847 -0.0054748585
-0.0063502532 0.056336027 -0.038747303 -0.062876694 0.05519306 -0.021149619 0.062351264 -0.014667577
-0.053835567 -0.001420545 -0.010133247 0.020444151 -0.068238 -0.07479729 0.0045648282 0.07984179
-0.055881325 -0.04437667 0.008311596 0.06616378 0.06772849 -0.018472975 -0.0046570376 -0.06971643
0.086216755 0.053583864 0.022620916 -0.08583502 0.049961347 -0.049600914 0.0036064156 0.04245285
-0.0034721233 -0.04315051 0.059843395 0.059780322 0.008663902 -0.055385407 -0.045814227 -0.07923526
-0.04724731 -0.078980684 -0.0077038356 -0.062640965 0.050284155 -0.071473084 -0.06086205 -0.054433793

encoder.enc2.1.weight f4 [64]
00000000: b37e 9e3f 83d2 9d3f 6bac 923f c326 8e3f
00000010: 0c80 903f 336d 983f 18b0 923f c39e a13f
00000020: 3d80 943f b83d a63f ed31 a43f f93e 9c3f
00000030: 27f8 9d3f d0bb b53f aca9 a53f c6fa 933f
00000040: 39c2 b33f 3dab 913f 35e9 973f 3045 b53f
00000050: 8e25 993f f807 933f 7591 b23f 7d52 923f
00000060: c356 943f 7df7 8c3f 3a31 953f 90cb 9b3f
00000070: 6afa 963f 30ea 983f d337 913f 4c88 8f3f
00000080: 310f 983f 7986 983f 102f 993f 4ab4 943f
00000090: 43d6 9b3f c96c 953f 3aed 9d3f 297f 9b3f
000000a0: 1170 ad3f 1df8 903f 7eb3 963f 1a99 a03f
000000b0: b157 8c3f 6b67 bf3f 4ff3 b93f b731 9c3f
000000c0: 046e 913f 98f1 943f 0014 9a3f 8112 953f
000000d0: 97ed 953f d5b8 923f d321 9a3f 2fa4 8f3f
000000e0: 46eb a63f a7e7 903f 7c53 933f 72f8 953f
000000f0: 524b 8c3f 3cc5 873f cd09 9d3f b2e2 923f
1.2382416 1.2329868 1.1458868 1.1105579 1.1289077 1.1908325 1.145999 1.2626575
1.1601635 1.2987585 1.2827736 1.2206718 1.2341355 1.4197941 1.2942405 1.1560905
1.4043647 1.1380383 1.1868044 1.4161739 1.1964586 1.1486807 1.395064 1.1431423
1.1588978 1.1013027 1.1655648 1.2171497 1.179517 1.1946468 1.1345161 1.121347
1.1879636 1.1916038 1.1967487 1.161752 1.2174762 1.1673824 1.2338021 1.2148181
1.3549825 1.1325718 1.1773527 1.2546723 1.0964261 1.4953436 1.4527377 1.2202672
1.1361699 1.1636229 1.2037354 1.1646272 1.1713132 1.1462656 1.2041572 1.122198
1.304055 1.1320695 1.1509852 1.1716444 1.0960486 1.0607066 1.2268616 1.1475432

encoder.enc2.1.bias f4 [64]
00000000: 2013 d53d 00eb 6e3e a3a9 1c3e 0780 c93d
00000010: cab7 de3d c6f0 1f3e 2707 233e 9db8 353d
00000020: a931 853d 9e48 833e cf6a 6f3e 1935 563e
00000030: 6bf7 873e e4a6 8f3e 1d7a b13e 76ac 1e3e
00000040: cbb8 a43e d4ac c63d 4999 ae3d 3817 8c3e
00000050: bde6 233e 90c1 89bb cbea 9f3e 73af cc3d
00000060: 5807 043e 42e4 503c 75fc 303e 8ba3 603e
00000070: 422b dc3d 991e 1f3e d61f 6dbd 592f 89bd
00000080: 1113 273e f585 0f3c 1988 4a3e e9bb 6d3d
00000090: 5009 2a3e fd4d 933d 1036 2f3e 5b92 163d
000000a0: 28fd 523e c8ca 98bb 64df a73d 81d6 883e
000000b0: 9b7b 813d 2a58 a93e b3cd ac3e 192f 733e
000000c0: dd44 0d3e 58ff da3d dbb5 be3c 2731 2f3e
000000d0: 0047 333e 30b4 b13d bcb6 f83d 29fd 113d
000000e0: 5594 6a3e 8d77 113e 7dd0 fe3d cfc3 293e
000000f0: 9d7a deba 9cab 923b 3699 3e3d b023 0a3e
0.104040384 0.23331833 0.15299086 0.098388724 0.10874899 0.15619192 0.15920697 0.044365514
0.065036125 0.2564134 0.23380588 0.20918693 0.26555952 0.28057015 0.34663478 0.15495476
0.32172236 0.09700933 0.085253306 0.27361465 0.16005988 -0.0042039827 0.3123382 0.09994402
0.12893426 0.012749733 0.17283805 0.21937387 0.10750438 0.15539016 -0.05789169 -0.06698484
0.16315867 0.008759965 0.1977848 0.058040533 0.16605115 0.071926095 0.17110467 0.03676067
0.20604384 -0.0046628453 0.08196905 0.26726153 0.06322404 0.33075076 0.33750686 0.23748435
0.137958 0.10693234 0.023280075 0.17108594 0.17507553 0.08676946 0.12144229 0.035641823
0.22908147 0.14205761 0.1244211 0.16578601 -0.0016973797 0.004476024 0.046532832 0.13490176

encoder.enc2.1.running_mean f4 [64]
00000000: 8df5 513f c38c 52bf 416e 3c3e ed0c d23c
00000010: d39b eabe 6115 bc3e 3f30 83bf 9a7f 3f3f
00000020: 7527 c4bf ab6f 49bf e951 dfbe 5f14 7fbf
00000030: f214 7ebf 4675 883f 47cb 90bf 2bc0 2fbf
00000040: 94bf 57bf 93f5 b33c 8911 e03d 3712 c3be
00000050: 68ac 87bf 4cda 723f 141f 0bbf 8fb3 9bbe
00000060: 1aaa 723f 197d 663f 213f e9be 5559 9cbf
00000070: 7e29 abbf 5636 a5bf 8289 403f d95d ca3f
00000080: a8a8 123f 0bc9 633f b83d 6abf 9918 33bd
00000090: 6ed1 353f 3917 1b3e 6b16 8f3e 72d3 8d3f
000000a0: 60c2 babe ed57 923f 919b eb3e f38b d2bf
000000b0: 5160 bfbe 2e25 773f 846b 6b3f 0a52 89be
000000c0: 6392 97be 1e6a 4dbf f2dd 4a3f 102b 82bf
000000d0: ec65 dfbe 69f5 11be ae50 26bf 63cf 28bd
000000e0: 4abd 41bf 3877 73bf 6820 df3e 1987 38bf
000000f0: 1622 893f 4f02 eabd af64 353d c3a6 ef3e
0.82015306 -0.82246035 0.18401434 0.02564093 -0.4582201 0.3673506 -1.0249099 0.7480408
-1.5324541 -0.78686017 -0.4361718 -0.9964046 -0.9925071 1.0660789 -1.1312035 -0.686526
-0.842767 0.021967685 0.109408446 -0.38099834 -1.0599489 0.94864345 -0.54344296 -0.3041043
0.94790804 0.90034634 -0.45555976 -1.2214762 -1.3372037 -1.2907207 0.7520982 1.580989
0.572886 0.8897864 -0.91500425 -0.04372463 0.7102269 0.15145577 0.2794679 1.1080153
-0.3647642 1.1433083 0.46017125 -1.6448959 -0.3737817 0.96541107 0.9196093 -0.26820403
-0.29603872 -0.80240047 0.7924491 -1.0169392 -0.43632448 -0.14253773 -0.6496686 -0.041213404
-0.7567946 -0.9510379 0.43579412 -0.7208114 1.0713527 -0.114262216 0.044285472 0.46806917

encoder.enc2.1.running_var f4 [64]
00000000: 42ec 5a3e 19c0 a43e 19a7 b93f f789 283f
00000010: 3870 193e cc4e 973e eaf0 a33f bcce dd3e
00000020: 684d 293f 0d71 893e a835 093e 074d 193f
00000030: 9909 9a3e cdd9 183f e7ca db3e faaf 643f
00000040: 34fd 423e 0167 253e 150b ea3d 3441 6e3d
00000050: c990 a43f 166c 153f 5620 6c3e a622 513e
00000060: 0e74 3d3f cb09 bc3e 8963 453f ecf8 013f
00000070: 9543 443f a935 d33e 2a15 8a3e 2faf 6b3f
00000080: ddd7 843f 1b1d 0f3f 8ec7 923e f2fd bd3e
00000090: e54a 543f 948c 2c3e 00e1 553f 6dfe 5e3f
000000a0: 0992 5a3e 3b87 1e3f fc2a a43e 64bb 1b3f
000000b0: 98bc ed3e 8f4c 173f c540 1d3f 3164 403e
000000c0: 8afd c83e d497 143f 5851 7b3e ae93 253f
000000d0: 865e 8c3f 2d4d 853e abd8 ba3e 2729 aa3e
000000e0: 1d35 3c3e 441a e83e f175 463f 2a5f d93e
000000f0: ea96 183f 42ca b03e 5945 b53d 521b 0840
0.21379188 0.3217781 1.4504119 0.6583552 0.14984214 0.29552305 1.2807896 0.43321788
0.6613374 0.26844063 0.13399374 0.5988316 0.30085447 0.5970734 0.4292824 0.8933102
0.19041902 0.16152574 0.11427895 0.05816765 1.2856685 0.5836805 0.2305921 0.20423374
0.7400521 0.3672622 0.77105004 0.5077045 0.7666562 0.41251877 0.26969272 0.92064184
1.0378376 0.55903786 0.28667873 0.37107807 0.8292678 0.16850501 0.8354645 0.8710697
0.2134477 0.61925095 0.32064044 0.6083281 0.46432948 0.59101194 0.61426955 0.1878822
0.39255935 0.5804417 0.24542749 0.64678466 1.0966346 0.26035443 0.3649343 0.33234522
0.18379636 0.4533254 0.77523714 0.42455417 0.59605277 0.3452931 0.08851118 2.1266675

encoder.enc3.1.weight f4 [3, 5504]
00000000: b23a d03a 959f 413c 36ea b43c 7228 a93c
00000010: 1487 543a 0a2a 373c 09d4 663c d8d4 713c
00000020: faa8 7b3b 77e4 0bbd efee cbbc 531d c5bc
00000030: 73f1 eabc a4e8 bdb9 16f0 45bc 3ab4 a6ba
00000040: 4ed5 a03b 5494 b238 c2c7 ae3b a43f 8cbc
00000050: 3c0e 40bc d8de aa3b 924f ef39 5f3e ac3c
00000060: fd41 273c 8cb5 5f3c e95d 7d3c 5ed2 b5ba
00000070: 25b1 3a3b e2a9 61bc 857a f5bb 922e 73bc
00000080: c55c 8ebc 9213 afbc 9d53 1abc c38e cdbc
00000090: 3727 2fbd 8832 17bd c5eb 2a3a e634 c3bc
000000a0: 6cdc 0bbd 1575 a3bc 55dd 1abd 6cdf 12bd
000000b0: 613c d5bc 8339 f7bc fb0e eabc 8f5f c1bc
000000c0: b17c 40bc 3675 c03b caf3 783c dd92 813c
000000d0: 563d b03c ba1b 893c ab66 033c 4c2f 783c
000000e0: 2c82 5a3c d9d4 fa3c 312c 853c f8b3 263c
000000f0: 5975 d4bb e24b 303c 0cc6 4ebb ee1e bd3c
00000100: c7ea 313c 9ac2 083d fee1 8d3c 71ec 2a3c
00000110: 9810 df3c 2dfa fb3c e9e1 923c bcfc b63c
00000120: 12a2 c53c d72f 62bb b7ae 853c 5733 b63c
00000130: fa56 593c e485 f13c 01a1 233d 0f77 403d
00000140: 6b17 153d cf71 803d 9082 9d3d f40b 923d
00000150: df08 e73c e299 913c d89c 5bbc 083c 8d3c
00000160: efef 64bb 5fe2 e23b bfa4 8ebc c0e8 5d3c
00000170: 74ab 93b7 bb50 f53b a35a 0cbd 7f8a af3c
00000180: f137 1c3c 1eb5 073c 8560 b3ba 0450 81bc
00000190: a91f b4bc af93 b0bc da9b 883c 09a5 1c3c
000001a0: 5cf6 56bc f55b 033d d9b3 9f3c a81e 05bd
000001b0: 28f8 efbc dfa0 97bc b772 cc3b ab17 103d
000001c0: 4237 013d 758e 66bb 7b08 5a3c 307c 8a3c
000001d0: d8a6 243c 9dc5 093d 78bb e43c 56c3 82bc
000001e0: 6562 ad3b 04fb be3c ab33 8b3c da97 b13b
000001f0: 2795 16bd 4d8b 62bc 31b5 47b8 7c2b 95bc
00000200: f73b 36bc 4559 87bc 5a04 d6bb af81 f33b
00000210: 9f29 053a 0e83 cf3b 91a1 a93c 2486 59bb
00000220: 7b28 a0b8 321e a93c 63d7 483c da3d 9dba
00000230: 890b 903c 7337 3c3c fee5 b43c 604f f53c
00000240: 5364 e53c eb9b 913c 2aa7 ff3c d9cc 4d3c
00000250: 086d 013d e830 673c 7577 b9bb 1581 09bb
00000260: 046d 2ebb dc3f ea3a 5806 fb3c 62b9 2f3c
00000270: 20f2 c43c f635 353c fe30 883c addb 19bb
00000280: 9bfa 7d3b 8fdc 583b bfb8 1e3c e0b6 f63b
00000290: 31db 0a3b b025 50bb f91a cd3c 3761 ba3c
000002a0: 2e1a eebb f416 0e3a 7061 d9bb d91d bfbd
000002b0: f90a 473b 414b ba3a 74ef 9b3b 6b48 35bc
000002c0: 68e1 0fbc 2914 12bc 6885 a7bc 73a6 29bc
000002d0: d5f6 b738 391e f5bc d8a9 6bbc 3b20 fdbb
000002e0: 7279 38bb dd62 41bc d97e 743c 9abc 603c
000002f0: c9ca 8ebb c08d 713c a155 0c3c bfdf 613c
00000300: 76f2 b33b 59d5 c63c 8f44 cd3c b278 b43c
00000310: 54ea bb3c 7a2c a93b 9c58 e33c 365a ec3c
00000320: 8b88 013d 5a00 2a3d 7e38 0d3d 9c04 143c
00000330: 078b 37bc 28d9 0d3c 19ff bbbc 0eac 39bd
00000340: f275 3abd 6744 43bc 158e 573d 3a35 b03d
00000350: 9bd8 173c b8c2 303d f656 ffbc 811c ac3c
00000360: 8a85 45bc b716 873c d4e7 95bc 8469 0bbd
00000370: a439 323b 6a7e 8dba ad30 ba3c 30a1 043d
00000380: db84 113d 47e9 a33c f076 893c 2105 fd3b
00000390: e11d 083d f028 273d 3c13 263d 62e3 c23c
000003a0: e47e 393d 4dc3 1e3d 2e09 f83c 1cbb bd3c
000003b0: dda6 403d 3132 fa3c fe05 b63c 602c 373d
000003c0: eca2 263d 5bcd 2d3d 5b01 3c3d dc65 273d
000003d0: 05ba 103d 6e62 093d 2ebc 333d fbdc 063d
000003e0: c7d4 b83c 4aab bb3c 253d 9f3c 6f41 053d
000003f0: 78cd 363d 32f7 253d 178b 1c3d 2dfa 053d
0.0015886633 0.0118178325 0.022084337 0.020649169 0.00081072864 0.0111794565 0.014088639 0.014760219
0.0038400278 -0.034153428 -0.024894206 -0.024061834 -0.028679585 -0.0003622222 -0.012081167 -0.0012718507
0.0049082404 8.51533e-05 0.0053338716 -0.01712019 -0.011722144 0.0052145533 0.00045644917 0.021025835
0.010208604 0.013654124 0.015464284 -0.0013871898 0.0028486934 -0.013773413 -0.007491412 -0.014842646
-0.01737822 -0.021371637 -0.009419349 -0.025092488 -0.042762008 -0.036913425 0.0006520118 -0.023828935
-0.034145758 -0.01995329 -0.037808735 -0.035857603 -0.026029767 -0.03017879 -0.028571596 -0.023605136
-0.011748479 0.0058733476 0.015194843 0.0158171 0.021513622 0.016736854 0.008020083 0.015147995
0.013336699 0.030619072 0.016256424 0.010174744 -0.0064837155 0.010760279 -0.003155115 0.023086037
0.010859198 0.03338871 0.017319676 0.010432349 0.027229592 0.030758942 0.017929988 0.02233731
0.024125133 -0.0034513378 0.016318662 0.022241278 0.013265366 0.02948279 0.039948467 0.046988543
0.036399286 0.06271707 0.076909184 0.07131186 0.028202472 0.017773572 -0.013404094 0.01724054
-0.003493305 0.006923958 -0.017412541 0.013544261 -1.7603605e-05 0.0074864305 -0.034266125 0.021428345
0.009534822 0.008282928 -0.0013685381 -0.015785225 -0.021987753 -0.021554796 0.016675878 0.009560832
-0.01312026 0.03207012 0.019494938 -0.03249994 -0.029293135 -0.018509327 0.006239261 0.03517882
0.03154684 -0.0035180126 0.013307686 0.01690492 0.010049544 0.033635724 0.027921423 -0.015962284
0.0052912706 0.023313053 0.01699241 0.0054197134 -0.036763337 -0.013827157 -4.7614045e-05 -0.018209212
-0.011122695 -0.01652206 -0.0065312805 0.007431231 0.00050797494 0.0063327616 0.020706924 -0.0033191526
-7.6369346e-05 0.020644281 0.012258383 -0.0011996583 0.017583625 0.0114878295 0.022082325 0.029945076
0.02800194 0.017774543 0.03120764 0.0125610465 0.03159812 0.014110781 -0.0056599923 -0.002098148
-0.0026615271 0.0017871815 0.030642673 0.010725351 0.024041235 0.011060229 0.016624924 -0.0023476884
0.0038754109 0.0033090448 0.009687602 0.0075291246 0.0021187777 -0.0031760745 0.025037276 0.022751434
-0.0072663045 0.00054202904 -0.00663393 -0.09331865 0.003037153 0.0014213101 0.0047587696 -0.011064629
-0.008781768 -0.008915939 -0.020449355 -0.010354626 8.772096e-05 -0.029921638 -0.014383756 -0.0077247894
-0.002814856 -0.011803356 0.014922821 0.013716841 -0.00435767 0.0147432685 0.008565337 0.013786255
0.00549155 0.024271654 0.025057105 0.022030208 0.022938885 0.0051627727 0.027752213 0.02885161
0.03162436 0.04150424 0.034477703 0.009034302 -0.01120258 0.008657731 -0.022948788 -0.0453301
-0.045522638 -0.011918164 0.052625734 0.08603902 0.009267951 0.04315445 -0.031169396 0.021009685
-0.012055764 0.016490323 -0.01829902 -0.034036174 0.0027195 -0.0010795121 0.022728289 0.032380283
0.03552709 0.020008696 0.016780347 0.0077215587 0.03323162 0.040810525 0.040545687 0.023790065
0.045287028 0.038760472 0.030277815 0.02316051 0.047034133 0.030541511 0.022219654 0.044720054
0.04068272 0.04243217 0.04589973 0.040868625 0.035333652 0.033541135 0.043880634 0.032925587
0.022562398 0.022908825 0.019438336 0.032533105 0.044629544 0.040518947 0.038218584 0.03270929

encoder.enc3.1.bias f4 [3]
00000000: c081 92bc cc0f 91bd ab94 18bc
-0.017884135 -0.07083091 -0.009312789

fc_location.bias f4 [3]
00000000: b79a c63e 143d debe 129c 0f3f
0.38789913 -0.43405974 0.5609752
