tests/models/vae_decoder.onnx (onnx, 196597 bytes, 13 tensors)

dec1.0.weight f4 [5504, 3]
000000 7a ce fb be 6e 53 35 3e 58 6d 10 3e 00 d4 20 3e
       -0.49180967 0.17707607 0.14104211 0.15705872
000010 4b 59 99 3e 56 44 94 be d7 2b 1c 3d af d4 98 be
       0.29950938 -0.28958386 0.038127746 -0.29849765
000020 d9 f5 d9 3e 7b 72 5c 3e 87 58 05 3f bf 14 e2 3e
       0.4257038 0.21528046 0.52088207 0.44156453
000030 83 88 a0 3e dd 70 bf 3e 8a 6d 54 bd 3b 29 99 be
       0.3135415 0.37390795 -0.051862277 -0.2991427
000040 a8 f1 33 be 51 27 65 be f0 dd 94 be 84 f8 83 be
       -0.17572653 -0.2237828 -0.29075575 -0.2577554
000050 04 a8 f0 be 05 7a b7 3d 91 7d 97 be 36 e5 09 bf
       -0.47003186 0.0895882 -0.29587987 -0.53865373
000060 e9 39 9a 3e fa 01 ea be f8 f0 80 3d f6 0c b3 3c
       0.30122307 -0.45704633 0.06295961 0.021856766
000070 f8 01 9d 3e 51 e1 fd 3e e6 5f ae 3e 6c 2e 03 bf
       0.30665565 0.49585965 0.3405754 -0.5124271
000080 2e bc ec bd 16 48 c8 3e 02 94 b5 be b4 ce 0a bf
       -0.1155933 0.39117497 -0.35464483 -0.54221654
000090 bc 15 0a bf 0e dc c4 be 44 39 c6 3e de ed 3f be
       -0.53939414 -0.38449138 0.38715565 -0.18743083
0000a0 24 47 9d 3e 9d 79 d1 be f7 03 6b be ca c3 1c bc
       0.30718338 -0.40913096 -0.22950731 -0.009568164
0000b0 94 04 11 3f fa 02 e2 3d fd 09 c5 be 95 e6 d9 3e
       0.5664761 0.11035724 -0.38484183 0.42558733
0000c0 cb 0f 6b 3d 3e 0b f2 3e ae a3 56 bd 87 d5 ec be
       0.05738811 0.47274202 -0.05240219 -0.46256658
0000d0 84 69 01 3e 89 c1 b0 be ee d6 c4 be 95 6c 78 3c
       0.12637907 -0.34522656 -0.38445228 0.015162607
0000e0 c6 df 33 3e 35 73 3f be ca 89 08 be 95 03 69 be
       0.17565832 -0.18696292 -0.13333812 -0.22755273
0000f0 45 a9 fa 3e 00 a3 f1 3d 5b 28 5b be 21 96 ee bd
       0.48957267 0.11798668 -0.21402113 -0.116497286
000100 e2 75 6a be 8f a0 79 bd f0 57 29 3e c4 15 ff bd
       -0.22896531 -0.060944136 0.16537452 -0.12455323
000110 b3 88 63 be 88 3a b5 be 99 b4 01 3f 1a 03 89 be
       -0.22220115 -0.35396218 0.50666195 -0.2676018
000120 72 9f ff 3e 23 f1 9d bd 78 53 41 be 23 f6 42 be
       0.49926335 -0.07712009 -0.18879497 -0.19039206
000130 02 15 2d bd 66 c5 a0 bd 05 dc 1d 3e 52 f1 83 be
       -0.042256363 -0.07850151 0.15415962 -0.2577005
000140 42 59 f1 3e c6 ba 4e 3e 54 29 cb bd d2 4c d2 be
       0.4713841 0.20188436 -0.09919992 -0.41074234
000150 47 30 0e 3e a0 22 ad bd 65 00 28 be 26 ec 04 bf
       0.13885604 -0.0845387 -0.164064 -0.51922834
000160 3b 19 5d 3e 32 3d 39 3e 27 17 be 3e 1f 24 b7 be
       0.21591656 0.1808975 0.3712704 -0.35769746
000170 2e 56 a0 3e 26 77 89 3e 4d 01 0c 3e 1e eb de 3e
       0.3131575 0.26848716 0.13672371 0.43538755
000180 49 09 06 bf 2b 55 bd 3e da 86 f3 bd c9 a8 43 3e
       -0.5235792 0.3697904 -0.11890955 0.19107355
000190 7e 03 c8 3e e4 da 0d 3d 6f 05 34 bd d6 05 84 3e
       0.39065164 0.03463258 -0.043950494 0.25785702
0001a0 f9 b8 fd 3e 7f 78 cb be cc 45 02 3f bc ff 32 3d
       0.49555185 -0.3974037 0.5088775 0.04370092
0001b0 1b 14 b4 3e fe fa 15 be 21 32 88 be 38 f7 37 bd
       0.3517159 -0.14646527 -0.26600745 -0.0449135
0001c0 d6 a6 2c 3d ed c8 f4 be 74 7c af 3e dd 86 3e 3d
       0.042151295 -0.47809544 0.34274638 0.046515334
0001d0 b8 7c 05 bf ac b6 99 3e d6 58 17 bf 97 b5 c2 be
       -0.5214343 0.3002218 -0.5911993 -0.38029167
0001e0 47 28 ca 3e ef 21 55 be 7b bd aa 3e 9d 94 ce 3e
       0.39483854 -0.20813726 0.33347687 0.40347758
0001f0 33 28 c4 3b b6 d6 00 bf c0 f5 c9 3e 51 53 91 be
       0.0059862374 -0.5032762 0.39445305 -0.28383878
000200 1d 53 fb be 2c a1 02 be 9e 8b bf 3e 71 54 76 be
       -0.49086848 -0.12756795 0.37411207 -0.2405565
000210 89 44 6e 3e b1 6a e3 bd fb a1 3e be 31 ac 95 bd
       0.23268332 -0.11104334 -0.18616478 -0.073082335
000220 f5 1b d1 3e 2c 00 f9 3e 6d 2b 3e be f1 4a d3 3e
       0.40841642 0.48632944 -0.18571253 0.41268113
000230 3b af e6 3e 74 3e 33 be f7 62 ce bd b6 33 71 3e
       0.45055565 -0.17504293 -0.1007747 0.23554882
000240 cb 80 d5 3e a6 22 2b bd 1a 65 f3 bd ea 7e cf be
       0.41699824 -0.04178109 -0.11884518 -0.40526515
000250 5c 80 0e be e1 15 ec be e9 f1 7f bd 59 33 09 bd
       -0.13916153 -0.46110442 -0.062486563 -0.033496235
000260 d0 e6 34 3e d4 9f ff 3e d5 d3 0f 3d 11 6a a2 3d
       0.17666173 0.49926627 0.03511413 0.07930387
000270 1b cb 05 3e c0 89 bd be 30 d7 18 bf e9 96 a7 3d
       0.1306576 -0.37019157 -0.5970335 0.08183081
000280 bb af 40 3d 94 01 f9 3e bb 88 c5 3e 4f 2c 58 bd
       0.04704259 0.48634017 0.3858088 -0.05277663
000290 97 29 73 be 06 57 0d 3f e6 e9 d9 be 92 ac d7 be
       -0.23746334 0.5521091 -0.42561263 -0.42123848
0002a0 9d 1d 4f 3e 17 3c 11 bf 4f b8 a9 3e 32 36 e6 bd
       0.2022614 -0.56732315 0.3314843 -0.11240806
0002b0 b2 58 f8 3e 17 84 f1 bc f0 5a b4 be 04 db 48 3e
       0.4850517 -0.02948193 -0.3522563 0.19614798
0002c0 81 25 7b be 5e 76 cf be df a0 4c be 44 54 a7 3e
       -0.24526025 -0.40519994 -0.19983242 0.32681477
0002d0 22 20 f5 3d 40 a1 fd 3e 03 24 05 be cf 2a b6 bd
       0.119690195 0.49537086 -0.13002019 -0.08894884
0002e0 6b 9c 84 be 67 44 15 3f ff b0 ab bd 69 79 1b bf
       -0.25900587 0.583075 -0.08383369 -0.6073213
0002f0 4a 50 c7 3d e3 ab dc be 6a 20 11 3d be 8c f0 3d
       0.09732111 -0.4309989 0.035431303 0.117455944
000300 b8 ac 9b be fc 15 15 bf 10 17 82 bd f9 b1 d4 be
       -0.3040521 -0.5823667 -0.06352055 -0.41542032
000310 1a 44 18 3f a6 c6 22 be 9b 7a 0b be eb b9 de 3e
       0.59478915 -0.15896091 -0.13620989 0.4350122
000320 bb 88 1e be a6 04 d7 bc 31 d3 2c bf 41 35 66 3d
       -0.15481846 -0.026247334 -0.6750975 0.05620313
000330 cc 9e fb 3e 79 98 26 bf 2e 53 c5 3e dc 89 a4 3e
       0.4914459 -0.65076405 0.38540024 0.32136428
000340 1a e9 82 3e 65 f8 00 3d b6 54 95 bd 24 de 0a 3f
       0.25568467 0.031486887 -0.07291548 0.5424521
000350 bb 23 8e 3e 5b 53 cd be 79 5e cd be db fd df 3e
       0.27761635 -0.40102658 -0.4011114 0.43748364
000360 6c dc 91 be 39 7f 95 be 61 a4 b2 be 50 82 40 3e
       -0.2848848 -0.29198626 -0.34891036 0.1879971
000370 fd 4d 01 be b5 1e 08 3f cf 05 5b be 01 e9 06 3e
       -0.12627406 0.53171855 -0.21388935 0.13174821
000380 e6 eb b2 be 96 02 d8 be eb ff 28 bf e2 b7 65 bd
       -0.349456 -0.42189473 -0.660155 -0.056083567
000390 80 4d 14 3e 82 0b ab 3e 84 0c 17 3f c5 a9 7d 3e
       0.14482689 0.33407217 0.5900347 0.24771793
0003a0 94 25 80 bd 3e c5 a3 3e 7e a0 d5 be fb c0 05 3f
       -0.062571675 0.3198642 -0.41724008 0.5224759
0003b0 4c e9 6d be 78 e1 9b 3e 6b e9 90 be 7d 17 0d 3f
       -0.23233527 0.30445457 -0.28303084 0.55113965
0003c0 09 3e 82 3e 4e 94 9d 3e 95 43 26 3e 4d a8 aa be
       0.25437954 0.3077721 0.16236718 -0.33331528
0003d0 c4 e4 0f bd 6a cf 88 3e 80 a9 79 3e 88 9e 55 3e
       -0.035130277 0.26720744 0.24381065 0.20861256
0003e0 0b 7b ef 3e cc 48 bf bd 83 77 f1 be 43 55 64 3e
       0.46773562 -0.09340057 -0.47161493 0.2229815
0003f0 f7 8e b0 3e 4e 0a ca 3e b6 81 e2 bd d7 7c 10 3d
       0.34484074 0.39460987 -0.11059897 0.035275307

dec1.0.bias f4 [5504]
000000 b6 31 a3 b9 a3 6d 04 3f 91 95 5f 3e 04 91 ff be
       -0.0003112682 0.5172979 0.21834399 -0.49915326
000010 34 80 1f bf 0b 0a d0 3e 46 3e d9 3e b0 dd e8 3d
       -0.62305 0.40632662 0.42430323 0.113704085
000020 4f 72 f8 3d ed 18 1e bf 14 00 0a bf a4 a2 7b 3e
       0.12131178 -0.61756784 -0.5390637 0.24573761
000030 2a c4 18 3e 27 f9 c4 3e ee e4 b7 3e 5f 55 63 3d
       0.1491858 0.38471338 0.35916847 0.055501338
000040 7b 31 cc 3e 75 5b 68 be 22 70 8e 3c 8a 10 12 3f
       0.398815 -0.22691138 0.017387453 0.57056487
000050 0a ed 47 3d 8d 21 b3 3e 12 de cc 3e 88 be 43 3e
       0.048810042 0.34986535 0.40013176 0.1911565
000060 16 11 09 3e 51 f6 20 3e 02 ef 3d 3e 3f 7d b5 3e
       0.13385424 0.15718962 0.18548205 0.35447118
000070 a4 4b 7a 3e 5e fb 8e 3e a8 6d 0b bf 70 7a 88 3d
       0.24442917 0.27926153 -0.544642 0.06663978
000080 54 ce 20 bd 3e c2 cb be d8 23 09 3e d6 66 85 3e
       -0.03925927 -0.39796633 0.1339258 0.2605502
000090 d3 df 59 be 82 eb 35 be f6 04 ed be 81 0a 51 3d
       -0.21276788 -0.1776562 -0.46292847 0.051035408
0000a0 c0 ca 9f 3e 88 a0 fe bd a0 76 32 3e c3 d8 6c 3e
       0.31209373 -0.12432963 0.17428064 0.23129563
0000b0 31 aa fd bd b8 a7 82 be f1 3d 81 3d 1c 3d 92 3d
       -0.12385977 -0.25518584 0.063106425 0.07140562
0000c0 79 9e a1 3e 28 9f ad 3e de 0d 19 be bc 6d bb 3e
       0.31566218 0.3391049 -0.14946696 0.36607158
0000d0 92 e6 06 bf be be bd be e9 f6 18 bf 2c 79 ca be
       -0.5269557 -0.37059587 -0.59751755 -0.39545572
0000e0 4e f5 dc 3e 09 bb 25 be e5 d9 2e be 31 81 93 3d
       0.43155903 -0.1618463 -0.17075308 0.07202376
0000f0 fb e1 d4 bd 35 94 d4 bd 6e 95 ab 3e 2f bf a5 3e
       -0.10394665 -0.10379831 0.33512443 0.32372424
000100 8e 78 e4 3d 56 2b 89 bd 92 1a bc be ae 26 00 be
       0.111558065 -0.06697719 -0.36739022 -0.12514755
000110 44 78 c7 3c 71 ef c0 3e 8b 6d 9c 3e ca 53 1a 3f
       0.02434934 0.3768268 0.30552325 0.602841
000120 fa cc 0d 3e fb 02 c7 be b6 9e c9 be 1b 69 b8 3d
       0.13847724 -0.3886946 -0.393789 0.09004422
000130 80 bd 02 be f1 3b 01 3f f3 b0 d5 be 4e de d8 3d
       -0.12767601 0.5048209 -0.41736564 0.10589276
000140 5c 2b a9 3d e6 d7 ec 3e 41 89 aa 3d 03 97 0c 3e
       0.08260223 0.46258467 0.0832696 0.13729481
000150 da e0 59 3d e4 f4 c5 bd bf b0 1f 3e ce 1f 09 bf
       0.05319295 -0.0966585 0.15594767 -0.53564155
000160 07 fc 12 3e fa c1 63 3e 83 60 0b bf a0 58 0d 3f
       0.14353953 0.22241965 -0.5444414 0.55213356
000170 57 07 23 3e 03 16 45 be fb 3d c1 bd 75 88 e9 3e
       0.15920769 -0.19246678 -0.0943565 0.4561192
000180 4b 23 c5 3e 8b 1d af bd 17 e8 c2 3e aa 1a b0 3d
       0.3850349 -0.08550557 0.38067695 0.08598836
000190 c1 ee 47 be e1 23 39 be 57 5f b3 3c f3 4f 5a be
       -0.19524671 -0.18080093 0.021896048 -0.2131956
0001a0 73 26 07 bf 2f 6a 73 be e6 52 82 be fb a5 fe be
       -0.52793044 -0.23770975 -0.2545387 -0.49736008
0001b0 8c 9e 9a bd c5 35 e6 bd a0 49 80 bc 16 6d 10 3f
       -0.07549772 -0.112407245 -0.015660107 0.5641645
0001c0 f5 0b 60 be 4b 5c 62 3e 1b 60 b4 be 0c 07 ce be
       -0.21879561 0.2210552 -0.35229573 -0.4023975
0001d0 f9 6a 15 3f 5a 1a f3 be 05 fc af bd 1b 40 2b 3e
       0.5836635 -0.47481042 -0.08592991 0.16723673
0001e0 19 2c 48 3e 3d 43 a6 3d f8 04 d4 3e 13 c0 67 be
       0.19548072 0.081182934 0.4141004 -0.22631864
0001f0 c7 0a c6 be 89 9f f6 bd a3 e1 e7 3e 6a 9c 02 bf
       -0.38680097 -0.12042148 0.45289335 -0.5101992
000200 c0 41 64 bd 4b c9 c7 3e 8b fc 08 bf c9 40 33 3d
       -0.055726767 0.39020762 -0.5351035 0.043762956
000210 6b 6a b7 be cb d0 af 3e 0d 4f fe be 11 5a 00 3f
       -0.35823378 0.34338984 -0.49669686 0.5013743
000220 10 57 1f be 2d f2 63 3e 94 d5 0d 3f 94 6d ff be
       -0.15560555 0.22260351 0.5540402 -0.4988829
000230 a3 48 0d 3f f2 a6 8e 3e e9 dc 0e 3f 38 15 2a 3d
       0.5518896 0.27861744 0.5580583 0.041524142
000240 90 74 8c be cf cd f7 be 42 23 aa be 42 33 b4 be
       -0.2743268 -0.48399207 -0.33230025 -0.35195357
000250 7a f3 d0 be 38 c0 66 3d e3 80 00 bd a2 61 51 bd
       -0.40810758 0.056335658 -0.031372916 -0.0511185
000260 be 8c 04 bf 68 74 18 bf a9 74 0a 3e 7a 44 c7 be
       -0.51777256 -0.5955262 0.13521065 -0.3891943
000270 62 42 b1 3e 95 12 49 3e 78 6d ad be c5 24 a6 3e
       0.3462096 0.19635995 -0.3387258 0.32449928
000280 76 36 aa be 0c b8 c3 3e 0b a6 84 be 8e 62 1b bf
       -0.33244675 0.38226354 -0.2590793 -0.6069726
000290 05 d2 01 bf 63 20 94 be cc 46 b5 bc 1c 00 d7 bd
       -0.5071109 -0.2893096 -0.022128485 -0.10498068
0002a0 03 ef b9 be 27 f5 ed 3e 9d b2 7b bd cb 39 29 3e
       -0.36315164 0.464761 -0.061449636 0.16525953
0002b0 71 d9 a2 be 18 88 77 3e fa 7b 09 3f c5 81 0a be
       -0.3180652 0.2417301 0.537048 -0.13526066
0002c0 5b 86 fd bd 8e 9e 39 be 47 07 90 3e 3c d9 1c 3f
       -0.12379142 -0.1812689 0.28130552 0.61268973
0002d0 3b 4a d3 3e ad 3a 09 bf 1f a9 93 be 76 f8 80 be
       0.4126757 -0.5360516 -0.28839967 -0.2518956
0002e0 d1 85 73 3e 91 b5 a7 be 1c 2a a9 be 30 e5 cf 3d
       0.23781516 -0.32755712 -0.3303994 0.10151136
0002f0 28 9a 91 be 6c 62 5b 3e 51 2a c7 be d2 ac fc 3e
       -0.28437924 0.21424264 -0.38899472 0.493506
000300 03 ab 20 bd fa be c6 be bd 25 e2 3e b7 cf de 3e
       -0.03922559 -0.3881758 0.44169417 0.4351785
000310 b4 11 9e bd c4 19 4e be 02 33 cf be 6f 41 c0 be
       -0.0771822 -0.20127016 -0.40468603 -0.37549922
000320 3f e1 1d 3e d3 0f e5 be 7c 85 cf 3e 94 48 c4 be
       0.15417956 -0.44738635 0.40531528 -0.38336623
000330 46 f8 f1 3e 2b ad 45 3e 1a a3 a1 be 5a a1 0d bf
       0.4725973 0.1930434 -0.3156975 -0.5532433
000340 c3 b7 a2 3d cd 23 ab 3e 72 8d 58 3e ff 7c 09 bf
       0.07945206 0.3342575 0.21147707 -0.53706354
000350 d9 16 02 bf d0 1e 48 3e 60 62 16 bf b1 ee 7e 3e
       -0.5081611 0.19543004 -0.5874386 0.24895741
000360 72 7c a6 3c e7 c0 db be a5 59 5d 3d 46 8d 3d 3e
       0.020323012 -0.4292061 0.05404057 0.18510923
000370 34 a2 c5 be 16 7f 31 3e 40 cc ca be 1e 33 0a bf
       -0.38600314 0.17333636 -0.39608955 -0.5398425
000380 e7 21 58 be 76 ae 15 bd 01 70 67 3e 16 e8 f0 3d
       -0.21106683 -0.036543332 0.2260132 0.11763017
000390 27 40 3c 3e da e9 9b bd 77 47 54 be 8d 65 18 bf
       0.18383847 -0.07612963 -0.20730387 -0.59529954
0003a0 d6 2c c7 3e f2 60 03 be 68 7a 04 bf 75 f0 d0 be
       0.38901395 -0.1282995 -0.5174928 -0.40808454
0003b0 2f 14 d4 be 1f a4 3e bd ad 5d 41 be c9 3c be be
       -0.4142165 -0.046543237 -0.1888339 -0.3715575
0003c0 ec 9a 34 bf bb 65 db be bc 8f 95 be e4 8a 1b 3f
       -0.7054889 -0.42851052 -0.29211223 0.60758805
0003d0 52 bc b4 bc e7 9b 0e bf b6 38 89 3e 1f d0 1e bf
       -0.022062454 -0.5570664 0.2680108 -0.6203632
0003e0 85 9c 69 3e 74 45 75 3c 09 02 cd be 59 d7 68 be
       0.22813614 0.014970172 -0.40040615 -0.22738399
0003f0 20 85 8a be 81 c4 b8 be a7 49 50 be 2c b6 bc 3e
       -0.2705469 -0.3608742 -0.20340596 0.36857736

dec1.2.weight f4 [64]
000000 ad f8 76 3f 37 34 82 3f 7b 79 83 3f 31 61 7d 3f
       0.964732 1.0172185 1.0271448 0.9897643
000010 ed ed 78 3f 98 05 7b 3f 6a 2d 80 3f 71 bc 7f 3f
       0.97238046 0.9805541 1.0013859 0.99896914
000020 87 c5 87 3f e2 3d 86 3f 1d f8 7a 3f 54 a6 7a 3f
       1.0607156 1.0487635 0.9803484 0.97910047
000030 eb 37 7d 3f a9 05 81 3f 82 b3 80 3f 30 93 7f 3f
       0.9891345 1.0079852 1.0054781 0.99833965
000040 5d 34 7e 3f 48 40 74 3f f7 02 7d 3f 4e 65 82 3f
       0.9929865 0.95410585 0.9883265 1.0187166
000050 fe 6c 7e 3f d2 3c 80 3f 99 67 7e 3f 8c d6 7c 3f
       0.9938506 1.0018561 0.9937683 0.9876487
000060 d7 b4 84 3f ff 6c 84 3f 0a c4 7f 3f 9a 83 8d 3f
       1.0367688 1.0345763 0.99908507 1.1055787
000070 20 2f 75 3f b3 a6 7a 3f 5d c7 77 3f 02 50 84 3f
       0.9577503 0.9791061 0.9678858 1.0336916
000080 e6 16 72 3f 9d f3 84 3f 67 2c 82 3f 56 c4 86 3f
       0.9456619 1.0386845 1.01698 1.0528667
000090 35 a1 84 3f 6d ce 81 3f 52 a1 82 3f e3 64 71 3f
       1.0361696 1.0141121 1.0205481 0.94294566
0000a0 2c 1a 7f 3f 8f 9f 78 3f 3e 3d 7e 3f 4e 71 7b 3f
       0.9964931 0.9711847 0.993122 0.98219764
0000b0 a7 4a 85 3f 2f 30 80 3f ec b7 80 3f 99 c4 80 3f
       1.0413407 1.0014704 1.0056129 1.0059997
0000c0 e9 41 89 3f 3b 5f 7e 3f 73 1d 7c 3f 92 8a 7e 3f
       1.0723239 0.9936406 0.98482436 0.9943019
0000d0 68 aa 7c 3f bd 73 77 3f 58 36 7b 3f b6 dd 84 3f
       0.9869752 0.9666098 0.98129797 1.0380161
0000e0 57 f6 78 3f 46 21 72 3f 20 01 84 3f 47 eb 80 3f
       0.97250885 0.9458202 1.0312843 1.0071801
0000f0 ad e8 85 3f 43 fc 80 3f 52 6a 7b 3f 97 5f 7f 3f
       1.0461632 1.0076984 0.98209107 0.99755234

dec1.2.bias f4 [64]
000000 c4 d1 df bb 6f e4 43 3c 2e d5 66 bb 73 87 a3 3b
       -0.006830426 0.011956318 -0.003522228 0.004990512
000010 47 97 91 3c 2e c6 b8 3c 66 f9 99 bd 55 d9 7b bc
       0.01777233 0.022555437 -0.07518272 -0.01537164
000020 3b 92 0f 3d 9f b8 0d bd 1c a9 0a bd 68 46 80 3d
       0.035051566 -0.034599897 -0.03385268 0.06263429
000030 2e 57 c4 bc 6c ca 7f bc 1d 74 5f 3d af 4f 5b 3b
       -0.023967352 -0.015612226 0.054554094 0.0033464243
000040 12 7d b8 3c 68 bc d6 bc e8 2b 62 bd 94 78 e1 bc
       0.022520576 -0.026212886 -0.055217654 -0.027523316
000050 14 14 a4 3d f0 8f c2 3d 8a 93 4a 3c 11 6e e8 bd
       0.08011642 0.0950011 0.012364278 -0.113491185
000060 0f b9 98 3c 59 d1 96 3a 54 9d 29 bd 10 d7 e4 bd
       0.01864293 0.0011506482 -0.041409805 -0.111738324
000070 0f 1a c8 3b c6 7e 45 3d ef 4d c5 3c 3a 7c 54 bd
       0.006106622 0.048216604 0.024085013 -0.051876284
000080 f0 90 15 bd 67 5b 82 bc bc ec ad bd 25 7d 87 bd
       -0.036515176 -0.015912725 -0.08492419 -0.06615666
000090 0f 56 af ba 96 75 3c bc bf ae 95 bc 62 7c 7e 3d
       -0.0013377088 -0.011502644 -0.018271802 0.06213034
0000a0 cd e2 33 bc a9 6f 53 3d 10 2a 3b 3d b4 6a 4e bd
       -0.0109793665 0.05162016 0.04569441 -0.05039473
0000b0 66 9e 9d 3b a3 06 16 3d 4c e1 eb bc 0d d1 be 39
       0.0048101423 0.036627423 -0.028793953 0.0003639538
0000c0 33 77 ae 3b 6f 36 7c bd 2c 91 16 bd d5 92 ad 3c
       0.0053242682 -0.06157535 -0.03675954 0.021188179
0000d0 b3 2c e1 bb e1 a7 00 be 75 9e 06 3a b6 ee 97 bd
       -0.0068717836 -0.1256404 0.0005135306 -0.074185774
0000e0 d8 63 6c bd 4b 3a 26 3d 3b 27 17 3d 77 4a b1 bd
       -0.057712406 0.040582936 0.036902647 -0.08656781
0000f0 c3 fc 91 3d 19 10 1d 3d d6 ee 85 bc fd b8 89 3c
       0.071282886 0.03834543 -0.016349237 0.016811842

dec1.2.running_mean f4 [64]
000000 1b 4d 1a 3d e4 af 41 bd 0d ad c9 bd ae 7e 97 3c
       0.03767119 -0.047286883 -0.0984746 0.018493023
000010 63 6d e3 bc aa de 83 3d fd 93 0c 3d e6 92 88 bd
       -0.02776212 0.06438954 0.03432082 -0.06668644
000020 52 da 58 bc f5 e9 39 3c 9d ee 06 3d ac b0 da 3a
       -0.013235645 0.011347284 0.032942403 0.0016684732
000030 42 56 52 bd e4 be 08 bc e2 8e d6 bc 0c ad 94 3c
       -0.051351793 -0.008346293 -0.026191179 0.018148921
000040 bd ab d8 bd 4f ab 28 bd 31 75 20 bd 8c cb 6e bd
       -0.105796315 -0.041178998 -0.039174262 -0.058299586
000050 ba f5 0c bd a6 84 1c bd cb 76 0a 3d 8d 8b d7 3d
       -0.03441403 -0.03821244 0.033804696 0.10524664
000060 9e 2d ca 3c a2 fc 40 bd f6 45 dd 3b 84 b4 fc 3c
       0.024679955 -0.04711593 0.0067527248 0.030847795
000070 df 8a 57 bd ea 9c 14 3d 79 82 12 bc a3 c5 04 3d
       -0.052622672 0.036282457 -0.00894224 0.032415044
000080 26 88 b5 3a 1f 88 22 3d ef be 27 3d fe 14 26 3c
       0.001384978 0.039680596 0.040953573 0.010136841
000090 e1 2e 6c bd 99 d5 2d 3d 7c 45 f0 3c 2c 2c ed bc
       -0.057661895 0.04244003 0.029330008 -0.028951727
0000a0 17 05 8b 39 39 da e6 bc 18 f2 a0 bd 80 58 9d bd
       0.00026515938 -0.028180229 -0.07858676 -0.07682896
0000b0 76 53 52 3d c4 bd 86 bd 97 72 d5 3c 8a cb 1b bd
       0.051349126 -0.06579164 0.026055617 -0.038035907
0000c0 cf d6 b4 3d 68 6a 58 bc 4a 60 8e 3c 07 75 05 bd
       0.08830034 -0.013208963 0.017379899 -0.03258231
0000d0 01 48 01 bc 22 63 64 3c 59 d3 26 ba d6 8f 9e 3d
       -0.007890702 0.013939651 -0.0006363891 0.07742278
0000e0 aa b5 c8 3c 0d 94 42 bd dc d8 28 bd 3a 0a bd bd
       0.024500687 -0.047504473 -0.04122244 -0.09230466
0000f0 13 52 fb 3b 2c 0d 03 3d a9 71 b5 bd 7e a1 49 bc
       0.007669696 0.031994984 -0.088595696 -0.012306569

dec1.2.running_var f4 [64]
000000 1c af 52 3e 77 f1 82 3e bc 80 86 3e c1 bc 89 3e
       0.20574611 0.25574848 0.26270092 0.2690182
000010 bb 68 81 3e 86 96 6d 3e 49 2b 67 3e 35 68 7e 3e
       0.25275216 0.23201951 0.22575106 0.2484444
000020 3d 7d 6b 3e db ca 55 3e 47 2d 84 3e 3f d9 84 3e
       0.22996993 0.20878164 0.25815794 0.25946996
000030 07 6f 8e 3e e9 8d 6f 3e 7f 22 77 3e 14 7f 79 3e
       0.27819082 0.23393978 0.24134253 0.24364883
000040 32 2b 72 3e f4 3a 7a 3e 59 34 55 3e bb 93 81 3e
       0.2364929 0.24436551 0.2082075 0.25308022
000050 77 7d 81 3e c7 c1 90 3e 02 4c 61 3e 6e 44 4d 3e
       0.25291035 0.2827284 0.22001651 0.20045635
000060 48 a3 72 3e d0 c3 72 3e fb 1f 78 3e ae dd 7e 3e
       0.236951 0.23707509 0.2423095 0.24889252
000070 c7 32 6b 3e 18 9a 5f 3e 54 d0 59 3e 41 fe 73 3e
       0.22968589 0.21836126 0.21270877 0.23827459
000080 84 7b 90 3e 5d 39 93 3e 9b 5a 6e 3e 8b 29 6f 3e
       0.28219235 0.28754702 0.2327675 0.23355691
000090 04 e4 51 3e 45 9d 52 3e 03 00 66 3e 81 25 7c 3e
       0.20497137 0.20567806 0.22460942 0.24623682
0000a0 29 95 76 3e de 25 7a 3e 97 1a 77 3e 65 b4 70 3e
       0.24080338 0.24428508 0.24131237 0.23506315
0000b0 4b e1 7e 3e 20 6c 82 3e 01 ef 65 3e 97 18 72 3e
       0.2489063 0.25473118 0.22454454 0.23642193
0000c0 95 cf 46 3e 35 1f 76 3e c6 53 7c 3e e9 6f 58 3e
       0.19415124 0.24035342 0.24641332 0.2113644
0000d0 c5 58 96 3e eb 37 72 3e 26 56 6f 3e b5 ad 5f 3e
       0.293646 0.23654144 0.23372707 0.21843608
0000e0 6b 45 78 3e 54 00 8a 3e c2 5f 82 3e 9a 9b 64 3e
       0.24245231 0.26953375 0.25463682 0.22324982
0000f0 6c 7f 55 3e b7 5c 80 3e 8f 49 87 3e d3 6d 76 3e
       0.20849389 0.25070736 0.26423308 0.24065332

dec2.0.weight f4 [64, 32, 4]
000000 67 41 60 bd cd c7 28 3d 23 d1 50 bc a4 41 b4 bd
       -0.054749873 0.04120617 -0.012745175 -0.088015825
000010 4b 43 eb bc 72 1f 3e 3d f3 f8 91 3d 50 a2 72 3c
       -0.028718611 0.046416707 0.071275614 0.014809206
000020 a1 a4 3b bd bf 70 c5 bd 02 db de bc 29 52 91 3c
       -0.0458113 -0.09640645 -0.02720404 0.017739372
000030 3a 11 a6 bb 29 46 bf 3c fe 21 36 3c 09 e7 40 3d
       -0.0050679715 0.023348885 0.011116503 0.047095332
000040 2a a0 cf 3c 95 51 00 bd 12 0c 2a 3d 73 5d ad bb
       0.025344927 -0.031327803 0.041515417 -0.005290681
000050 72 84 61 3c fa 34 02 ba 0e bf 3e 3c d5 4d da bb
       0.013764488 -0.00049670006 0.011642231 -0.0066621103
000060 4b 03 41 bc b2 4c 16 3c da 68 1a bc 30 a6 f6 bc
       -0.01178057 0.009173559 -0.009424413 -0.030108541
000070 bc 76 bf 3c d0 de 8b 3d 64 09 71 3d e9 25 8d 3d
       0.023372047 0.068296075 0.058846846 0.068919964
000080 7a 3d 9d 3c 20 51 9b bd 49 ca 91 bc 49 44 08 bd
       0.019194353 -0.07583833 -0.017796652 -0.033268247
000090 7b fb 64 bc 56 f2 9b bc a1 95 09 bc 42 6e 75 bc
       -0.013975973 -0.019036453 -0.008397491 -0.014979901
0000a0 fd 69 0a bd b8 9c 8b 3c 54 3a 34 bd be e4 66 3c
       -0.033792485 0.017042503 -0.04400094 0.014092622
0000b0 a7 5e 3d 3c 89 cf 85 bb 5c fb 27 3d e6 2e 5d 3a
       0.011558211 -0.004083578 0.0410112 0.00084374694
0000c0 9a 91 be 3d 29 10 79 3c 51 b6 4e 3c 08 ac 94 3c
       0.09305115 0.015201607 0.01261671 0.018148437
0000d0 00 ad 5c bc c8 4e 14 3b b6 b1 15 3d 15 38 0a 3d
       -0.013468981 0.0022629965 0.03654643 0.03374489
0000e0 59 f1 a4 bd 12 d5 05 bd 90 9b 76 3d 06 a0 65 3d
       -0.08053846 -0.032673903 0.06020695 0.056060813
0000f0 ff 3e 66 3d e6 7c 01 3e f7 62 ad bd 89 f3 fc 3c
       0.05621242 0.12645301 -0.08466142 0.030877845
000100 d4 50 fa bb fb 26 c8 b8 52 53 bc bc e2 20 ef 3c
       -0.00763903 -9.544004e-05 -0.022988949 0.029190484
000110 4a 10 8d bc 9d ef 88 bd 9f b0 a7 3c 08 bc b5 bb
       -0.017219681 -0.066863276 0.020469962 -0.0055460967
000120 d0 49 7d bd 0f 4d 9b 3d fd f3 85 bc 67 3a 50 3d
       -0.06183797 0.07583057 -0.016351694 0.050836947
000130 a6 03 3f bd 45 10 8c bd 91 60 39 bc 33 a3 97 bc
       -0.04663434 -0.06839041 -0.011314527 -0.018510437
000140 f1 3c bc bd b3 5d 93 3d 85 1c 3b bd e8 5f a6 3c
       -0.09191311 0.07195606 -0.045681495 0.020309404
000150 b8 4a 61 bd f1 b3 21 bc 19 86 dc bb 3d 06 87 bc
       -0.055002898 -0.0098695615 -0.006729853 -0.016482467
000160 10 ee 5d 3d f3 df 50 3c 88 10 08 3d b6 0a 82 bc
       0.054182112 0.012748706 0.03321889 -0.015874248
000170 e2 22 06 bc e8 b4 c6 ba cc 88 0d bd a5 84 b5 bb
       -0.008187028 -0.0015160115 -0.034554288 -0.005539494
000180 58 d7 f8 3c b4 f7 50 bc 31 21 be bc 67 78 c6 bd
       0.030376121 -0.0127543695 -0.023209186 -0.09690934
000190 9b 9a 22 bd 1d 1e 30 bd 07 d1 8b bd 00 34 a9 bd
       -0.039698225 -0.04299747 -0.06826978 -0.08261871
0001a0 85 14 e8 bc 5d 86 41 bd ba 90 2a 3c a5 9b 27 bd
       -0.028330097 -0.04724728 0.010410482 -0.04091992
0001b0 9d 96 a5 bb 65 61 cc 3d dd 62 cb 3d 5e 2b a3 3c
       -0.005053355 0.09979514 0.09930966 0.01991814
0001c0 81 24 52 3b 98 85 1b 3d 9d f0 92 bd 36 52 0f 3d
       0.0032065215 0.0379692 -0.071747996 0.03499051
0001d0 93 8c a0 bc e8 49 4a bd 9b 2f 98 bc 19 aa 74 3d
       -0.019598281 -0.04938689 -0.018577388 0.05973253
0001e0 7b f3 10 3d 7c 98 dc 3d e6 40 0b 3b 43 1f bc bc
       0.03538845 0.107712716 0.00212484 -0.022964125
0001f0 c5 9b af 3d bb 6b 6e bd ad 29 e8 bd 11 00 b0 3d
       0.085746326 -0.05820821 -0.11336074 0.08593763
000200 08 51 70 bc b7 53 9b bc e6 47 8d 3d 13 a4 82 bd
       -0.014667757 -0.018960817 0.06898479 -0.06378951
000210 2a 3b db 3c 26 b9 c8 bb 4a 3a 96 3c a1 fc b7 bd
       0.02676161 -0.006125587 0.018338341 -0.08983732
000220 1d 67 c5 bb e3 a7 45 3d 40 d8 9e 3d 9c 02 ce bd
       -0.006024255 0.048255812 0.0775609 -0.100590914
000230 2c 73 82 3a fe 70 8c 3d d6 f6 df 3d 3f 87 81 3c
       0.0009952537 0.06857489 0.10935752 0.01581156
000240 f6 3e 92 3d ac fe 81 3d 76 72 35 bd 20 89 13 bb
       0.07140915 0.06347403 -0.04429861 -0.0022512153
000250 0d b8 a2 bd 4f 55 84 bd 72 49 0d 3c 7b 5c 23 3c
       -0.07945261 -0.06461584 0.008623468 0.0099707795
000260 e3 05 76 3d 4c ef 34 3d df b3 10 3d 56 2a 81 3c
       0.060064208 0.044173524 0.03532779 0.015767258
000270 0e df 80 3d b4 b8 20 bc 2d eb 3d bd f2 08 d2 bb
       0.06292544 -0.009809662 -0.04636686 -0.006409758
000280 d9 5b 27 39 20 65 29 bd 48 f2 51 bc 86 5d eb 3d
       0.00015960577 -0.041356206 -0.012814112 0.114924476
000290 96 8f 39 3d b7 96 5b 3d 21 e0 12 bc fc d9 1b 3c
       0.04530295 0.05361053 -0.008964569 0.009512421
0002a0 61 2e 44 bc 89 da 58 bd 52 96 d7 ba 12 d7 73 3c
       -0.011973948 -0.052942786 -0.0016447997 0.01488282
0002b0 cf a4 0b 3c 15 47 63 3d a2 db 04 3e 78 ae 07 3e
       0.00852318 0.05548771 0.12974408 0.13250148
0002c0 68 81 06 3d 51 d6 d7 3c 07 d7 9f 3d 7b 77 43 3d
       0.032838255 0.026347311 0.07804685 0.047721367
0002d0 70 06 fd 3d 76 53 1a 3d b1 d4 3f bc 92 a9 ac 3d
       0.123547435 0.03767725 -0.011708424 0.084307805
0002e0 54 07 89 3d c7 43 9a 3d df 95 89 bd 64 52 d5 3d
       0.06690851 0.07532459 -0.06718039 0.104161054
0002f0 99 1a 2b 3d 8b 2e 42 3d 5c bb a2 3c 7a a5 49 3d
       0.041773412 0.047407668 0.01986473 0.049230076
000300 70 74 02 bd 79 c7 6e 3c 30 59 9c bd ac 49 ca 3a
       -0.031849325 0.014573925 -0.07634199 0.0015433333
000310 29 4e bd bd ba da 65 bd 57 76 b8 bc 75 18 23 bd
       -0.092434235 -0.056116797 -0.022517366 -0.039818246
000320 d0 28 82 bd e7 d1 11 3d 55 3b 64 3d 40 6d 0f bd
       -0.063554406 0.03560057 0.055720646 -0.0350163
000330 15 9d 5a bd d7 09 48 bd 3b a2 4d bd 48 04 4c bd
       -0.05337246 -0.04883751 -0.050203543 -0.04980877
000340 b9 f5 d5 3b 5b a1 8a bd 3d 9c f9 3b 2a 4d 43 3d
       0.0065295366 -0.06769057 0.007617502 0.04768101
000350 c3 62 2b bd df 81 16 bd 67 f3 ca bd 67 34 22 3c
       -0.041842233 -0.03674495 -0.099097066 0.009900189
000360 de 0b 3a bd e3 df 80 3d 78 40 db bd 86 f5 97 bd
       -0.045421474 0.06292703 -0.10705656 -0.07419877
000370 14 53 15 be 82 6a 35 bd 15 0c 45 bd 9f f1 01 be
       -0.14582473 -0.044291027 -0.048107225 -0.12689827
000380 bf 82 01 bd 2b c9 8d bd 9c 27 86 3d 89 0d b6 3c
       -0.03161883 -0.06923135 0.06550524 0.022223251
000390 b1 1f 92 bc 25 d4 1a bd aa e1 84 bc bf df 09 be
       -0.017837377 -0.037799973 -0.016220886 -0.13464259
0003a0 76 3c f1 3c f9 02 03 be df 33 57 bc 37 e6 a3 3c
       0.029447775 -0.12794103 -0.013134926 0.020007236
0003b0 29 05 41 3d 3b a6 b4 3d a2 df 07 3d 94 e2 f2 3d
       0.04712406 0.088207684 0.033172257 0.118596226
0003c0 2c e1 4a bd d6 49 e3 bc 6b 2b 2f 3c 58 1e 38 bd
       -0.049531147 -0.027745169 0.010691504 -0.044950813
0003d0 09 c3 8f bb 33 1d 53 bd 41 29 c6 3d 8c 51 5c 3c
       -0.0043872637 -0.05154152 0.09675837 0.013447177
0003e0 69 2e eb 3c 77 1b a7 3b fa 66 40 3d 5a d2 9f bc
       0.028708654 0.0050997096 0.046973206 -0.019509483
0003f0 82 c0 7e bc 61 06 30 3b aa 3e 54 bd db a8 03 bd
       -0.015548827 0.002685927 -0.051817574 -0.032143455

dec2.0.bias f4 [32]
000000 6e f6 38 3d c8 b7 a7 3c e0 37 1a bd b0 10 e3 3b
       0.04515689 0.020473376 -0.037650943 0.0069294795
000010 b9 b8 ef 3c 88 8d 29 3d f0 28 a8 3d 25 d7 09 bd
       0.029262887 0.04139474 0.08210933 -0.033652443
000020 f3 dc 9c bc 08 fa a8 3d 7b 36 49 3d a0 68 95 bd
       -0.019148326 0.08250815 0.049124222 -0.07295346
000030 fe e5 99 bd eb 7a 03 bd bb a7 8d 3d 2e 82 22 bd
       -0.07514571 -0.032099646 0.06916758 -0.03967493
000040 7e b8 6a bd 61 78 19 3d 51 2d d3 bc b3 03 4b 3d
       -0.05730485 0.037468318 -0.025778444 0.049564075
000050 16 10 01 bc cd 45 82 3d 7e 7c 2c bc cc 82 0c bd
       -0.00787737 0.0636097 -0.010527728 -0.034304425
000060 fe ea b0 bc f9 0c ff 3c 93 89 7c bd 71 17 99 3d
       -0.021596428 0.031134116 -0.06165464 0.07475174
000070 31 05 ea 3c ff 90 7c bd e6 48 6d bd 04 16 a0 bd
       0.028566929 -0.061661717 -0.05793085 -0.07816699

dec2.1.weight f4 [32]
000000 12 f0 8b 3f b3 ad 64 3f ad 77 76 3f 06 aa 90 3f
       1.0932639 0.89327544 0.9627636 1.1301887
000010 ea b7 7f 3f 33 9f 74 3f 06 fd 76 3f 39 1d 80 3f
       0.99890006 0.9555542 0.96479833 1.0008918
000020 82 d7 76 3f b2 dc 83 3f 80 8e 90 3f 76 2e 86 3f
       0.9642259 1.0301726 1.1293488 1.0482929
000030 e1 27 73 3f e1 9b 7a 3f 86 63 76 3f 49 aa 69 3f
       0.94982725 0.978941 0.9624561 0.9127546
000040 39 2d 84 3f c1 69 85 3f d3 3d 6f 3f 65 15 86 3f
       1.0326301 1.0422899 0.9345371 1.0475279
000050 9e 55 84 3f 3c 20 85 3f 57 92 76 3f 4f df 7a 3f
       1.0338628 1.0400462 0.96317047 0.9799699
000060 aa 3f 5b 3f 32 b5 7e 3f 95 8e 83 3f 33 3b 8d 3f
       0.8564402 0.9949523 1.0277888 1.1033691
000070 06 a1 71 3f 71 41 76 3f e9 be 81 3f f8 23 74 3f
       0.9438633 0.96193606 1.0136386 0.95367384

dec2.1.bias f4 [32]
000000 72 05 ba 3d c3 2c e5 39 6a c3 1c bd c6 84 0d bd
       0.0908307 0.00043711634 -0.0382723 -0.03455045
000010 34 cd 4f bc b4 98 09 bd 85 7b 3d bd f0 bc fb 3c
       -0.012683202 -0.033592895 -0.046260376 0.03072974
000020 06 05 42 bd bf 5a 07 3d 3e 89 00 3d 3e d6 b6 3c
       -0.047368072 0.033045527 0.031380884 0.022318956
000030 08 e1 0b bd 83 cd e4 bc 97 2a 23 bd b3 29 d6 bc
       -0.034150153 -0.027930027 -0.03983554 -0.02614293
000040 9b 4a 07 3d e8 62 6f 3d ac 2e 0a bd 28 3c 30 3d
       0.033030134 0.058443934 -0.033735916 0.04302612
000050 6a a0 0a 3d cf 67 f7 3c 2b 23 15 bd a5 df 82 3d
       0.03384439 0.030200867 -0.036410492 0.06390313
000060 6e 55 f0 3c cd 13 27 3d 82 2e 2c 3d 87 98 7b bc
       0.029337611 0.040790368 0.04203654 -0.01535619
000070 90 9c 35 bd 73 b4 11 bd 93 c8 b7 bc 16 fa 32 bd
       -0.044338763 -0.03557248 -0.022434508 -0.04369553

dec2.1.running_mean f4 [32]
000000 70 89 fd 3c 4b 88 f3 bd 69 77 7b be e3 da 95 be
       0.030949324 -0.1189123 -0.2455727 -0.2926856
000010 92 e0 c1 bd 7f 44 93 3d ad 0b 10 3e 4a 1f 32 3e
       -0.094666615 0.07190799 0.14066954 0.17394748
000020 34 a3 a4 be 28 66 ca be be 70 41 be a2 9d e7 be
       -0.32155764 -0.39531064 -0.18890664 -0.45237452
000030 85 e6 01 be a8 84 64 bd a0 60 3d 3e 6f 87 8b 3b
       -0.12685592 -0.055790573 0.18493891 0.0042580883
000040 41 a9 84 be 53 cd 8b bd 20 c3 06 3e 46 38 ed 3d
       -0.2591038 -0.06826272 0.13160372 0.11582999
000050 8a 10 4e be a1 a5 16 bd 1e 7f 21 bd e1 de 30 be
       -0.20123497 -0.03677905 -0.03942787 -0.17272522
000060 b7 56 b0 3c d0 02 77 bd 28 89 d6 be 00 47 b0 bd
       0.021525724 -0.060305417 -0.41901517 -0.08607292
000070 d5 59 84 be e6 27 58 be b0 8a 64 3e a5 3b 21 be
       -0.25849786 -0.2110897 0.2231853 -0.15745409

dec2.1.running_var f4 [32]
000000 5e 57 12 3e 88 b1 17 3e f4 5d 63 3e 81 47 0e 3e
       0.1429114 0.14813817 0.22203809 0.13894464
000010 16 f8 39 3e 37 b8 db 3e 9f fa 2e 3e 1c be 78 3e
       0.18161044 0.42913982 0.17087792 0.24291271
000020 24 f1 71 3e 5d b0 bc 3f 37 26 1b 3e 9c 81 39 3e
       0.23627144 1.4741322 0.15151297 0.18115848
000030 cf 12 50 3e fd 05 11 3e 14 51 af 3e dd d7 20 3e
       0.20319675 0.1416244 0.34241545 0.15707345
000040 93 0d 02 3f d9 64 87 3e 3b bd 29 3e d6 d2 28 3e
       0.5080196 0.26444128 0.16576092 0.16486678
000050 8f a3 e3 3e 31 76 23 3e d6 a8 54 3e 5e 64 64 3e
       0.44460723 0.15963055 0.20767531 0.22303912
000060 f4 71 82 3e 27 d3 2e 3e d6 01 9d 3e 92 b8 f0 3d
       0.25477564 0.17072736 0.30665463 0.11753954
000070 4e 03 f5 3e e0 19 09 3f 98 af 17 3e c6 c9 d9 3e
       0.47854084 0.5355511 0.14813077 0.42536753

dec3.0.weight f4 [32, 1, 4]
000000 cf e3 47 3e 98 ea 18 3e 77 3a 37 3e d5 15 c4 3e
       0.19520496 0.1493324 0.17893396 0.38297907
000010 20 ef 70 3e a9 49 cc bd 60 9d c6 be f4 a4 92 bd
       0.23528719 -0.09974987 -0.38791943 -0.071603686
000020 89 f7 18 bd 15 22 9c 3e 15 13 af be bb 2c cd 3c
       -0.037345443 0.30494753 -0.34194246 0.025045743
000030 c6 66 80 be 9e 1b 92 be ba 00 85 be e5 3e a1 3d
       -0.2507841 -0.28536695 -0.25977117 0.07873324
000040 1d 1d a1 bd cf 1e 5a 3d d2 29 d2 be db 21 51 be
       -0.07866881 0.053252038 -0.4104753 -0.20423071
000050 f8 75 ad be 3b 2a b1 3e d4 5e bd bc fe 51 af 3e
       -0.33879066 0.34602532 -0.023116507 0.34242243
000060 d7 f0 ad be 5c a4 16 3d 5d 6f 07 be c4 57 ec be
       -0.3397281 0.03677784 -0.13226075 -0.4616071
000070 1a 3c 77 3e 20 9e 00 bf ea 53 69 be 4b 84 84 3d
       0.2414402 -0.5024128 -0.22785917 0.064705454
000080 96 1a 81 be c9 74 e3 be b9 62 b5 be 5c bc 44 bc
       -0.25215596 -0.44425038 -0.35426882 -0.012007799
000090 4f 47 d9 3e 30 79 af be 1f 36 d7 3e 3f 21 d8 be
       0.42437217 -0.34272146 0.4203348 -0.42212865
0000a0 6b 74 ac 3e a2 d9 ab 3e e3 23 3a 3e 43 73 83 3e
       0.3368257 0.33564478 0.18177752 0.25673875
0000b0 93 d5 43 3e ad 8a 18 be 02 c1 a5 be 28 09 86 be
       0.19124441 -0.1489665 -0.32373816 -0.2617886
0000c0 bd ee c1 3d c2 37 9d 3e 11 81 aa be 1c ad c7 bc
       0.09469364 0.30706602 -0.33301595 -0.024374537
0000d0 39 28 dc be b2 07 b8 3b ce 68 d5 bc 34 ae 8e bd
       -0.42999437 0.0056161517 -0.026050951 -0.0696682
0000e0 fa de ea 3d af c4 9f 3e 80 46 27 be fe a7 cb be
       0.11468311 0.31204745 -0.16335487 -0.39776605
0000f0 0a 74 b0 be 04 13 02 bf b0 2d 2e be c1 47 b1 3e
       -0.3446353 -0.50810266 -0.17009616 0.34625056
000100 98 60 ff 3e d8 cc ce be cd 88 aa bd 99 0f a5 be
       0.49878383 -0.40390658 -0.08326874 -0.32238463
000110 53 1d e2 3d 12 95 04 3e 06 db d0 3e 77 cd c2 3e
       0.110407494 0.12947491 0.40792102 0.38047382
000120 c8 20 a1 be e5 29 53 3e 94 62 8b 3d 3a 30 47 bd
       -0.31470323 0.2062145 0.06805912 -0.048629977
000130 6f 4a 50 3e 92 dd 17 3e 88 fd 01 3f 82 3f a2 3e
       0.20340894 0.14830616 0.50777483 0.31689078
000140 87 f7 a2 3e f8 30 31 be 16 1d 49 be a9 5d f0 3c
       0.31829473 -0.17303836 -0.19640002 0.029341536
000150 4b 64 e8 3e 5d 5d 9d 3e 98 cd b0 3e 3b 7f dc 3e
       0.45389017 0.30735293 0.34531856 0.4306582
000160 0c 26 98 3d 7d 7f 83 3e f0 88 6e bd 14 07 88 3e
       0.07429132 0.25683203 -0.058236063 0.265679
000170 b0 01 f9 3e a4 c0 98 3e 25 be 03 be a5 2e a4 3d
       0.486341 0.29834473 -0.12865503 0.08016709
000180 dd 4e 04 3f ff 3d 2d be c2 9e c8 be 78 71 2a 3e
       0.51682836 -0.16918181 -0.39183623 0.16644847
000190 c9 ef 12 3d 81 6e 18 3e bb 4f ba 3e b9 4d 01 3b
       0.03587321 0.14885904 0.36388955 0.0019730164
0001a0 45 65 8f 3e 5a 16 3d 3e 39 3d 90 3e ee a3 d0 3e
       0.2800695 0.18465558 0.2817171 0.40750068
0001b0 ad 0b 65 be 4a ed d8 be 3f 33 3d be 26 b8 a8 be
       -0.22367735 -0.42368537 -0.1847658 -0.32952994
0001c0 ae f2 9f be 84 d2 cf 3e 26 07 f2 3e 39 a6 f9 bd
       -0.31239837 0.40590298 0.4727108 -0.121899076
0001d0 6d e7 f0 be 5b 8a ea 3e a2 2e 36 3d f7 2f bb 38
       -0.47051564 0.45808682 0.044478066 8.925789e-05
0001e0 96 2d 4d 3d b5 34 2c 3e 5f 2f 16 bd d8 63 77 be
       0.050092302 0.16816981 -0.03666627 -0.24159181
0001f0 af e9 b9 be be 57 1f be 13 a7 d2 3e 91 e5 20 3e
       -0.363111 -0.15560815 0.41143093 0.15712573
